<?xml version="1.0"?>
<net name="Model0" version="11">
	<layers>
		<layer id="0" name="x" type="Parameter" version="opset1">
			<data shape="1,3,320,320" element_type="f32" />
			<output>
				<port id="0" precision="FP32" names="x">
					<dim>1</dim>
					<dim>3</dim>
					<dim>320</dim>
					<dim>320</dim>
				</port>
			</output>
		</layer>
		<layer id="1" name="__module.model.21/aten::unsqueeze/Unsqueeze" type="Const" version="opset1">
			<data element_type="f32" shape="1, 2, 2100" offset="0" size="16800" />
			<output>
				<port id="0" precision="FP32" names="1942,anchor_points">
					<dim>1</dim>
					<dim>2</dim>
					<dim>2100</dim>
				</port>
			</output>
		</layer>
		<layer id="2" name="x/fq_output_0/input_low" type="Const" version="opset1">
			<data element_type="f32" shape="" offset="16800" size="4" />
			<output>
				<port id="0" precision="FP32" />
			</output>
		</layer>
		<layer id="3" name="x/fq_output_0/input_high" type="Const" version="opset1">
			<data element_type="f32" shape="" offset="16804" size="4" />
			<output>
				<port id="0" precision="FP32" />
			</output>
		</layer>
		<layer id="4" name="x/fq_output_0/output_low" type="Const" version="opset1">
			<data element_type="f32" shape="" offset="16800" size="4" />
			<output>
				<port id="0" precision="FP32" />
			</output>
		</layer>
		<layer id="5" name="x/fq_output_0/output_high" type="Const" version="opset1">
			<data element_type="f32" shape="" offset="16804" size="4" />
			<output>
				<port id="0" precision="FP32" />
			</output>
		</layer>
		<layer id="6" name="x/fq_output_0" type="FakeQuantize" version="opset1">
			<data levels="256" auto_broadcast="numpy" />
			<input>
				<port id="0" precision="FP32">
					<dim>1</dim>
					<dim>3</dim>
					<dim>320</dim>
					<dim>320</dim>
				</port>
				<port id="1" precision="FP32" />
				<port id="2" precision="FP32" />
				<port id="3" precision="FP32" />
				<port id="4" precision="FP32" />
			</input>
			<output>
				<port id="5" precision="FP32">
					<dim>1</dim>
					<dim>3</dim>
					<dim>320</dim>
					<dim>320</dim>
				</port>
			</output>
		</layer>
		<layer id="7" name="Constant_582204" type="Const" version="opset1">
			<data element_type="i8" shape="16, 3, 3, 3" offset="16808" size="432" />
			<output>
				<port id="0" precision="I8">
					<dim>16</dim>
					<dim>3</dim>
					<dim>3</dim>
					<dim>3</dim>
				</port>
			</output>
		</layer>
		<layer id="8" name="Convert_582205" type="Convert" version="opset1">
			<data destination_type="f32" />
			<input>
				<port id="0" precision="I8">
					<dim>16</dim>
					<dim>3</dim>
					<dim>3</dim>
					<dim>3</dim>
				</port>
			</input>
			<output>
				<port id="1" precision="FP32">
					<dim>16</dim>
					<dim>3</dim>
					<dim>3</dim>
					<dim>3</dim>
				</port>
			</output>
		</layer>
		<layer id="9" name="Constant_582206" type="Const" version="opset1">
			<data element_type="f32" shape="16, 1, 1, 1" offset="17240" size="64" />
			<output>
				<port id="0" precision="FP32">
					<dim>16</dim>
					<dim>1</dim>
					<dim>1</dim>
					<dim>1</dim>
				</port>
			</output>
		</layer>
		<layer id="10" name="__module.model.0.conv/aten::_convolution/Convolution/fq_weights_1" type="Multiply" version="opset1">
			<data auto_broadcast="numpy" />
			<input>
				<port id="0" precision="FP32">
					<dim>16</dim>
					<dim>3</dim>
					<dim>3</dim>
					<dim>3</dim>
				</port>
				<port id="1" precision="FP32">
					<dim>16</dim>
					<dim>1</dim>
					<dim>1</dim>
					<dim>1</dim>
				</port>
			</input>
			<output>
				<port id="2" precision="FP32">
					<dim>16</dim>
					<dim>3</dim>
					<dim>3</dim>
					<dim>3</dim>
				</port>
			</output>
		</layer>
		<layer id="11" name="__module.model.0.conv/aten::_convolution/Convolution" type="Convolution" version="opset1">
			<data strides="2, 2" dilations="1, 1" pads_begin="1, 1" pads_end="1, 1" auto_pad="explicit" />
			<input>
				<port id="0" precision="FP32">
					<dim>1</dim>
					<dim>3</dim>
					<dim>320</dim>
					<dim>320</dim>
				</port>
				<port id="1" precision="FP32">
					<dim>16</dim>
					<dim>3</dim>
					<dim>3</dim>
					<dim>3</dim>
				</port>
			</input>
			<output>
				<port id="2" precision="FP32">
					<dim>1</dim>
					<dim>16</dim>
					<dim>160</dim>
					<dim>160</dim>
				</port>
			</output>
		</layer>
		<layer id="12" name="__module.model.0.conv/aten::_convolution/Reshape" type="Const" version="opset1">
			<data element_type="f32" shape="1, 16, 1, 1" offset="17304" size="64" />
			<output>
				<port id="0" precision="FP32">
					<dim>1</dim>
					<dim>16</dim>
					<dim>1</dim>
					<dim>1</dim>
				</port>
			</output>
		</layer>
		<layer id="13" name="__module.model.0.conv/aten::_convolution/Add" type="Add" version="opset1">
			<data auto_broadcast="numpy" />
			<input>
				<port id="0" precision="FP32">
					<dim>1</dim>
					<dim>16</dim>
					<dim>160</dim>
					<dim>160</dim>
				</port>
				<port id="1" precision="FP32">
					<dim>1</dim>
					<dim>16</dim>
					<dim>1</dim>
					<dim>1</dim>
				</port>
			</input>
			<output>
				<port id="2" precision="FP32" names="87_1">
					<dim>1</dim>
					<dim>16</dim>
					<dim>160</dim>
					<dim>160</dim>
				</port>
			</output>
		</layer>
		<layer id="14" name="__module.model.21.cv3.2.1.1.act/aten::silu_/Swish" type="Swish" version="opset4">
			<input>
				<port id="0" precision="FP32">
					<dim>1</dim>
					<dim>16</dim>
					<dim>160</dim>
					<dim>160</dim>
				</port>
			</input>
			<output>
				<port id="1" precision="FP32" names="87,input.1">
					<dim>1</dim>
					<dim>16</dim>
					<dim>160</dim>
					<dim>160</dim>
				</port>
			</output>
		</layer>
		<layer id="15" name="__module.model.21.cv3.2.1.1.act/aten::silu_/Swish/fq_output_0/input_low" type="Const" version="opset1">
			<data element_type="f32" shape="" offset="17368" size="4" />
			<output>
				<port id="0" precision="FP32" />
			</output>
		</layer>
		<layer id="16" name="__module.model.21.cv3.2.1.1.act/aten::silu_/Swish/fq_output_0/input_high" type="Const" version="opset1">
			<data element_type="f32" shape="" offset="17372" size="4" />
			<output>
				<port id="0" precision="FP32" />
			</output>
		</layer>
		<layer id="17" name="__module.model.21.cv3.2.1.1.act/aten::silu_/Swish/fq_output_0/output_low" type="Const" version="opset1">
			<data element_type="f32" shape="" offset="17368" size="4" />
			<output>
				<port id="0" precision="FP32" />
			</output>
		</layer>
		<layer id="18" name="__module.model.21.cv3.2.1.1.act/aten::silu_/Swish/fq_output_0/output_high" type="Const" version="opset1">
			<data element_type="f32" shape="" offset="17372" size="4" />
			<output>
				<port id="0" precision="FP32" />
			</output>
		</layer>
		<layer id="19" name="__module.model.21.cv3.2.1.1.act/aten::silu_/Swish/fq_output_0" type="FakeQuantize" version="opset1">
			<data levels="256" auto_broadcast="numpy" />
			<input>
				<port id="0" precision="FP32">
					<dim>1</dim>
					<dim>16</dim>
					<dim>160</dim>
					<dim>160</dim>
				</port>
				<port id="1" precision="FP32" />
				<port id="2" precision="FP32" />
				<port id="3" precision="FP32" />
				<port id="4" precision="FP32" />
			</input>
			<output>
				<port id="5" precision="FP32">
					<dim>1</dim>
					<dim>16</dim>
					<dim>160</dim>
					<dim>160</dim>
				</port>
			</output>
		</layer>
		<layer id="20" name="Constant_582208" type="Const" version="opset1">
			<data element_type="i8" shape="32, 16, 3, 3" offset="17376" size="4608" />
			<output>
				<port id="0" precision="I8">
					<dim>32</dim>
					<dim>16</dim>
					<dim>3</dim>
					<dim>3</dim>
				</port>
			</output>
		</layer>
		<layer id="21" name="Convert_582209" type="Convert" version="opset1">
			<data destination_type="f32" />
			<input>
				<port id="0" precision="I8">
					<dim>32</dim>
					<dim>16</dim>
					<dim>3</dim>
					<dim>3</dim>
				</port>
			</input>
			<output>
				<port id="1" precision="FP32">
					<dim>32</dim>
					<dim>16</dim>
					<dim>3</dim>
					<dim>3</dim>
				</port>
			</output>
		</layer>
		<layer id="22" name="Constant_582210" type="Const" version="opset1">
			<data element_type="f32" shape="32, 1, 1, 1" offset="21984" size="128" />
			<output>
				<port id="0" precision="FP32">
					<dim>32</dim>
					<dim>1</dim>
					<dim>1</dim>
					<dim>1</dim>
				</port>
			</output>
		</layer>
		<layer id="23" name="__module.model.1.conv/aten::_convolution/Convolution/fq_weights_1" type="Multiply" version="opset1">
			<data auto_broadcast="numpy" />
			<input>
				<port id="0" precision="FP32">
					<dim>32</dim>
					<dim>16</dim>
					<dim>3</dim>
					<dim>3</dim>
				</port>
				<port id="1" precision="FP32">
					<dim>32</dim>
					<dim>1</dim>
					<dim>1</dim>
					<dim>1</dim>
				</port>
			</input>
			<output>
				<port id="2" precision="FP32">
					<dim>32</dim>
					<dim>16</dim>
					<dim>3</dim>
					<dim>3</dim>
				</port>
			</output>
		</layer>
		<layer id="24" name="__module.model.1.conv/aten::_convolution/Convolution" type="Convolution" version="opset1">
			<data strides="2, 2" dilations="1, 1" pads_begin="1, 1" pads_end="1, 1" auto_pad="explicit" />
			<input>
				<port id="0" precision="FP32">
					<dim>1</dim>
					<dim>16</dim>
					<dim>160</dim>
					<dim>160</dim>
				</port>
				<port id="1" precision="FP32">
					<dim>32</dim>
					<dim>16</dim>
					<dim>3</dim>
					<dim>3</dim>
				</port>
			</input>
			<output>
				<port id="2" precision="FP32">
					<dim>1</dim>
					<dim>32</dim>
					<dim>80</dim>
					<dim>80</dim>
				</port>
			</output>
		</layer>
		<layer id="25" name="__module.model.1.conv/aten::_convolution/Reshape" type="Const" version="opset1">
			<data element_type="f32" shape="1, 32, 1, 1" offset="22112" size="128" />
			<output>
				<port id="0" precision="FP32">
					<dim>1</dim>
					<dim>32</dim>
					<dim>1</dim>
					<dim>1</dim>
				</port>
			</output>
		</layer>
		<layer id="26" name="__module.model.1.conv/aten::_convolution/Add" type="Add" version="opset1">
			<data auto_broadcast="numpy" />
			<input>
				<port id="0" precision="FP32">
					<dim>1</dim>
					<dim>32</dim>
					<dim>80</dim>
					<dim>80</dim>
				</port>
				<port id="1" precision="FP32">
					<dim>1</dim>
					<dim>32</dim>
					<dim>1</dim>
					<dim>1</dim>
				</port>
			</input>
			<output>
				<port id="2" precision="FP32" names="101_1">
					<dim>1</dim>
					<dim>32</dim>
					<dim>80</dim>
					<dim>80</dim>
				</port>
			</output>
		</layer>
		<layer id="27" name="__module.model.21.cv3.2.1.1.act/aten::silu_/Swish_1" type="Swish" version="opset4">
			<input>
				<port id="0" precision="FP32">
					<dim>1</dim>
					<dim>32</dim>
					<dim>80</dim>
					<dim>80</dim>
				</port>
			</input>
			<output>
				<port id="1" precision="FP32" names="101,input.5">
					<dim>1</dim>
					<dim>32</dim>
					<dim>80</dim>
					<dim>80</dim>
				</port>
			</output>
		</layer>
		<layer id="28" name="__module.model.21.cv3.2.1.1.act/aten::silu_/Swish_1/fq_output_0/input_low" type="Const" version="opset1">
			<data element_type="f32" shape="" offset="22240" size="4" />
			<output>
				<port id="0" precision="FP32" />
			</output>
		</layer>
		<layer id="29" name="__module.model.21.cv3.2.1.1.act/aten::silu_/Swish_1/fq_output_0/input_high" type="Const" version="opset1">
			<data element_type="f32" shape="" offset="22244" size="4" />
			<output>
				<port id="0" precision="FP32" />
			</output>
		</layer>
		<layer id="30" name="__module.model.21.cv3.2.1.1.act/aten::silu_/Swish_1/fq_output_0/output_low" type="Const" version="opset1">
			<data element_type="f32" shape="" offset="22240" size="4" />
			<output>
				<port id="0" precision="FP32" />
			</output>
		</layer>
		<layer id="31" name="__module.model.21.cv3.2.1.1.act/aten::silu_/Swish_1/fq_output_0/output_high" type="Const" version="opset1">
			<data element_type="f32" shape="" offset="22244" size="4" />
			<output>
				<port id="0" precision="FP32" />
			</output>
		</layer>
		<layer id="32" name="__module.model.21.cv3.2.1.1.act/aten::silu_/Swish_1/fq_output_0" type="FakeQuantize" version="opset1">
			<data levels="256" auto_broadcast="numpy" />
			<input>
				<port id="0" precision="FP32">
					<dim>1</dim>
					<dim>32</dim>
					<dim>80</dim>
					<dim>80</dim>
				</port>
				<port id="1" precision="FP32" />
				<port id="2" precision="FP32" />
				<port id="3" precision="FP32" />
				<port id="4" precision="FP32" />
			</input>
			<output>
				<port id="5" precision="FP32">
					<dim>1</dim>
					<dim>32</dim>
					<dim>80</dim>
					<dim>80</dim>
				</port>
			</output>
		</layer>
		<layer id="33" name="Constant_582212" type="Const" version="opset1">
			<data element_type="i8" shape="32, 32, 1, 1" offset="22248" size="1024" />
			<output>
				<port id="0" precision="I8">
					<dim>32</dim>
					<dim>32</dim>
					<dim>1</dim>
					<dim>1</dim>
				</port>
			</output>
		</layer>
		<layer id="34" name="Convert_582213" type="Convert" version="opset1">
			<data destination_type="f32" />
			<input>
				<port id="0" precision="I8">
					<dim>32</dim>
					<dim>32</dim>
					<dim>1</dim>
					<dim>1</dim>
				</port>
			</input>
			<output>
				<port id="1" precision="FP32">
					<dim>32</dim>
					<dim>32</dim>
					<dim>1</dim>
					<dim>1</dim>
				</port>
			</output>
		</layer>
		<layer id="35" name="Constant_582214" type="Const" version="opset1">
			<data element_type="f32" shape="32, 1, 1, 1" offset="23272" size="128" />
			<output>
				<port id="0" precision="FP32">
					<dim>32</dim>
					<dim>1</dim>
					<dim>1</dim>
					<dim>1</dim>
				</port>
			</output>
		</layer>
		<layer id="36" name="__module.model.2.cv1.conv/aten::_convolution/Convolution/fq_weights_1" type="Multiply" version="opset1">
			<data auto_broadcast="numpy" />
			<input>
				<port id="0" precision="FP32">
					<dim>32</dim>
					<dim>32</dim>
					<dim>1</dim>
					<dim>1</dim>
				</port>
				<port id="1" precision="FP32">
					<dim>32</dim>
					<dim>1</dim>
					<dim>1</dim>
					<dim>1</dim>
				</port>
			</input>
			<output>
				<port id="2" precision="FP32">
					<dim>32</dim>
					<dim>32</dim>
					<dim>1</dim>
					<dim>1</dim>
				</port>
			</output>
		</layer>
		<layer id="37" name="__module.model.2.cv1.conv/aten::_convolution/Convolution" type="Convolution" version="opset1">
			<data strides="1, 1" dilations="1, 1" pads_begin="0, 0" pads_end="0, 0" auto_pad="explicit" />
			<input>
				<port id="0" precision="FP32">
					<dim>1</dim>
					<dim>32</dim>
					<dim>80</dim>
					<dim>80</dim>
				</port>
				<port id="1" precision="FP32">
					<dim>32</dim>
					<dim>32</dim>
					<dim>1</dim>
					<dim>1</dim>
				</port>
			</input>
			<output>
				<port id="2" precision="FP32">
					<dim>1</dim>
					<dim>32</dim>
					<dim>80</dim>
					<dim>80</dim>
				</port>
			</output>
		</layer>
		<layer id="38" name="__module.model.2.cv1.conv/aten::_convolution/Reshape" type="Const" version="opset1">
			<data element_type="f32" shape="1, 32, 1, 1" offset="23400" size="128" />
			<output>
				<port id="0" precision="FP32">
					<dim>1</dim>
					<dim>32</dim>
					<dim>1</dim>
					<dim>1</dim>
				</port>
			</output>
		</layer>
		<layer id="39" name="__module.model.2.cv1.conv/aten::_convolution/Add" type="Add" version="opset1">
			<data auto_broadcast="numpy" />
			<input>
				<port id="0" precision="FP32">
					<dim>1</dim>
					<dim>32</dim>
					<dim>80</dim>
					<dim>80</dim>
				</port>
				<port id="1" precision="FP32">
					<dim>1</dim>
					<dim>32</dim>
					<dim>1</dim>
					<dim>1</dim>
				</port>
			</input>
			<output>
				<port id="2" precision="FP32" names="119_1">
					<dim>1</dim>
					<dim>32</dim>
					<dim>80</dim>
					<dim>80</dim>
				</port>
			</output>
		</layer>
		<layer id="40" name="__module.model.21.cv3.2.1.1.act/aten::silu_/Swish_2" type="Swish" version="opset4">
			<input>
				<port id="0" precision="FP32">
					<dim>1</dim>
					<dim>32</dim>
					<dim>80</dim>
					<dim>80</dim>
				</port>
			</input>
			<output>
				<port id="1" precision="FP32" names="119,input.9">
					<dim>1</dim>
					<dim>32</dim>
					<dim>80</dim>
					<dim>80</dim>
				</port>
			</output>
		</layer>
		<layer id="41" name="__module.model.21.cv3.2.1.1.act/aten::silu_/Swish_2/fq_output_0/input_low" type="Const" version="opset1">
			<data element_type="f32" shape="" offset="23528" size="4" />
			<output>
				<port id="0" precision="FP32" />
			</output>
		</layer>
		<layer id="42" name="__module.model.21.cv3.2.1.1.act/aten::silu_/Swish_2/fq_output_0/input_high" type="Const" version="opset1">
			<data element_type="f32" shape="" offset="23532" size="4" />
			<output>
				<port id="0" precision="FP32" />
			</output>
		</layer>
		<layer id="43" name="__module.model.21.cv3.2.1.1.act/aten::silu_/Swish_2/fq_output_0/output_low" type="Const" version="opset1">
			<data element_type="f32" shape="" offset="23528" size="4" />
			<output>
				<port id="0" precision="FP32" />
			</output>
		</layer>
		<layer id="44" name="__module.model.21.cv3.2.1.1.act/aten::silu_/Swish_2/fq_output_0/output_high" type="Const" version="opset1">
			<data element_type="f32" shape="" offset="23532" size="4" />
			<output>
				<port id="0" precision="FP32" />
			</output>
		</layer>
		<layer id="45" name="__module.model.21.cv3.2.1.1.act/aten::silu_/Swish_2/fq_output_0" type="FakeQuantize" version="opset1">
			<data levels="256" auto_broadcast="numpy" />
			<input>
				<port id="0" precision="FP32">
					<dim>1</dim>
					<dim>32</dim>
					<dim>80</dim>
					<dim>80</dim>
				</port>
				<port id="1" precision="FP32" />
				<port id="2" precision="FP32" />
				<port id="3" precision="FP32" />
				<port id="4" precision="FP32" />
			</input>
			<output>
				<port id="5" precision="FP32">
					<dim>1</dim>
					<dim>32</dim>
					<dim>80</dim>
					<dim>80</dim>
				</port>
			</output>
		</layer>
		<layer id="46" name="107" type="Const" version="opset1">
			<data element_type="i64" shape="" offset="23536" size="8" />
			<output>
				<port id="0" precision="I64" names="107" />
			</output>
		</layer>
		<layer id="47" name="Constant_212" type="Const" version="opset1">
			<data element_type="i64" shape="2" offset="23544" size="16" />
			<output>
				<port id="0" precision="I64" names="121">
					<dim>2</dim>
				</port>
			</output>
		</layer>
		<layer id="48" name="__module.model.2/aten::split_with_sizes/VariadicSplit" type="VariadicSplit" version="opset1">
			<input>
				<port id="0" precision="FP32">
					<dim>1</dim>
					<dim>32</dim>
					<dim>80</dim>
					<dim>80</dim>
				</port>
				<port id="1" precision="I64" />
				<port id="2" precision="I64">
					<dim>2</dim>
				</port>
			</input>
			<output>
				<port id="3" precision="FP32" names="123">
					<dim>1</dim>
					<dim>16</dim>
					<dim>80</dim>
					<dim>80</dim>
				</port>
				<port id="4" precision="FP32" names="124,input.11">
					<dim>1</dim>
					<dim>16</dim>
					<dim>80</dim>
					<dim>80</dim>
				</port>
			</output>
		</layer>
		<layer id="49" name="Constant_582216" type="Const" version="opset1">
			<data element_type="i8" shape="8, 16, 3, 3" offset="23560" size="1152" />
			<output>
				<port id="0" precision="I8">
					<dim>8</dim>
					<dim>16</dim>
					<dim>3</dim>
					<dim>3</dim>
				</port>
			</output>
		</layer>
		<layer id="50" name="Convert_582217" type="Convert" version="opset1">
			<data destination_type="f32" />
			<input>
				<port id="0" precision="I8">
					<dim>8</dim>
					<dim>16</dim>
					<dim>3</dim>
					<dim>3</dim>
				</port>
			</input>
			<output>
				<port id="1" precision="FP32">
					<dim>8</dim>
					<dim>16</dim>
					<dim>3</dim>
					<dim>3</dim>
				</port>
			</output>
		</layer>
		<layer id="51" name="Constant_582218" type="Const" version="opset1">
			<data element_type="f32" shape="8, 1, 1, 1" offset="24712" size="32" />
			<output>
				<port id="0" precision="FP32">
					<dim>8</dim>
					<dim>1</dim>
					<dim>1</dim>
					<dim>1</dim>
				</port>
			</output>
		</layer>
		<layer id="52" name="__module.model.2.m.0.cv1.conv/aten::_convolution/Convolution/fq_weights_1" type="Multiply" version="opset1">
			<data auto_broadcast="numpy" />
			<input>
				<port id="0" precision="FP32">
					<dim>8</dim>
					<dim>16</dim>
					<dim>3</dim>
					<dim>3</dim>
				</port>
				<port id="1" precision="FP32">
					<dim>8</dim>
					<dim>1</dim>
					<dim>1</dim>
					<dim>1</dim>
				</port>
			</input>
			<output>
				<port id="2" precision="FP32">
					<dim>8</dim>
					<dim>16</dim>
					<dim>3</dim>
					<dim>3</dim>
				</port>
			</output>
		</layer>
		<layer id="53" name="__module.model.2.m.0.cv1.conv/aten::_convolution/Convolution" type="Convolution" version="opset1">
			<data strides="1, 1" dilations="1, 1" pads_begin="1, 1" pads_end="1, 1" auto_pad="explicit" />
			<input>
				<port id="0" precision="FP32">
					<dim>1</dim>
					<dim>16</dim>
					<dim>80</dim>
					<dim>80</dim>
				</port>
				<port id="1" precision="FP32">
					<dim>8</dim>
					<dim>16</dim>
					<dim>3</dim>
					<dim>3</dim>
				</port>
			</input>
			<output>
				<port id="2" precision="FP32">
					<dim>1</dim>
					<dim>8</dim>
					<dim>80</dim>
					<dim>80</dim>
				</port>
			</output>
		</layer>
		<layer id="54" name="__module.model.2.m.0.cv1.conv/aten::_convolution/Reshape" type="Const" version="opset1">
			<data element_type="f32" shape="1, 8, 1, 1" offset="24744" size="32" />
			<output>
				<port id="0" precision="FP32">
					<dim>1</dim>
					<dim>8</dim>
					<dim>1</dim>
					<dim>1</dim>
				</port>
			</output>
		</layer>
		<layer id="55" name="__module.model.2.m.0.cv1.conv/aten::_convolution/Add" type="Add" version="opset1">
			<data auto_broadcast="numpy" />
			<input>
				<port id="0" precision="FP32">
					<dim>1</dim>
					<dim>8</dim>
					<dim>80</dim>
					<dim>80</dim>
				</port>
				<port id="1" precision="FP32">
					<dim>1</dim>
					<dim>8</dim>
					<dim>1</dim>
					<dim>1</dim>
				</port>
			</input>
			<output>
				<port id="2" precision="FP32" names="134_1">
					<dim>1</dim>
					<dim>8</dim>
					<dim>80</dim>
					<dim>80</dim>
				</port>
			</output>
		</layer>
		<layer id="56" name="__module.model.21.cv3.2.1.1.act/aten::silu_/Swish_3" type="Swish" version="opset4">
			<input>
				<port id="0" precision="FP32">
					<dim>1</dim>
					<dim>8</dim>
					<dim>80</dim>
					<dim>80</dim>
				</port>
			</input>
			<output>
				<port id="1" precision="FP32" names="134,input.13">
					<dim>1</dim>
					<dim>8</dim>
					<dim>80</dim>
					<dim>80</dim>
				</port>
			</output>
		</layer>
		<layer id="57" name="__module.model.21.cv3.2.1.1.act/aten::silu_/Swish_3/fq_output_0/input_low" type="Const" version="opset1">
			<data element_type="f32" shape="" offset="24776" size="4" />
			<output>
				<port id="0" precision="FP32" />
			</output>
		</layer>
		<layer id="58" name="__module.model.21.cv3.2.1.1.act/aten::silu_/Swish_3/fq_output_0/input_high" type="Const" version="opset1">
			<data element_type="f32" shape="" offset="24780" size="4" />
			<output>
				<port id="0" precision="FP32" />
			</output>
		</layer>
		<layer id="59" name="__module.model.21.cv3.2.1.1.act/aten::silu_/Swish_3/fq_output_0/output_low" type="Const" version="opset1">
			<data element_type="f32" shape="" offset="24776" size="4" />
			<output>
				<port id="0" precision="FP32" />
			</output>
		</layer>
		<layer id="60" name="__module.model.21.cv3.2.1.1.act/aten::silu_/Swish_3/fq_output_0/output_high" type="Const" version="opset1">
			<data element_type="f32" shape="" offset="24780" size="4" />
			<output>
				<port id="0" precision="FP32" />
			</output>
		</layer>
		<layer id="61" name="__module.model.21.cv3.2.1.1.act/aten::silu_/Swish_3/fq_output_0" type="FakeQuantize" version="opset1">
			<data levels="256" auto_broadcast="numpy" />
			<input>
				<port id="0" precision="FP32">
					<dim>1</dim>
					<dim>8</dim>
					<dim>80</dim>
					<dim>80</dim>
				</port>
				<port id="1" precision="FP32" />
				<port id="2" precision="FP32" />
				<port id="3" precision="FP32" />
				<port id="4" precision="FP32" />
			</input>
			<output>
				<port id="5" precision="FP32">
					<dim>1</dim>
					<dim>8</dim>
					<dim>80</dim>
					<dim>80</dim>
				</port>
			</output>
		</layer>
		<layer id="62" name="Constant_582220" type="Const" version="opset1">
			<data element_type="i8" shape="16, 8, 3, 3" offset="24784" size="1152" />
			<output>
				<port id="0" precision="I8">
					<dim>16</dim>
					<dim>8</dim>
					<dim>3</dim>
					<dim>3</dim>
				</port>
			</output>
		</layer>
		<layer id="63" name="Convert_582221" type="Convert" version="opset1">
			<data destination_type="f32" />
			<input>
				<port id="0" precision="I8">
					<dim>16</dim>
					<dim>8</dim>
					<dim>3</dim>
					<dim>3</dim>
				</port>
			</input>
			<output>
				<port id="1" precision="FP32">
					<dim>16</dim>
					<dim>8</dim>
					<dim>3</dim>
					<dim>3</dim>
				</port>
			</output>
		</layer>
		<layer id="64" name="Constant_582222" type="Const" version="opset1">
			<data element_type="f32" shape="16, 1, 1, 1" offset="25936" size="64" />
			<output>
				<port id="0" precision="FP32">
					<dim>16</dim>
					<dim>1</dim>
					<dim>1</dim>
					<dim>1</dim>
				</port>
			</output>
		</layer>
		<layer id="65" name="__module.model.2.m.0.cv2.conv/aten::_convolution/Convolution/fq_weights_1" type="Multiply" version="opset1">
			<data auto_broadcast="numpy" />
			<input>
				<port id="0" precision="FP32">
					<dim>16</dim>
					<dim>8</dim>
					<dim>3</dim>
					<dim>3</dim>
				</port>
				<port id="1" precision="FP32">
					<dim>16</dim>
					<dim>1</dim>
					<dim>1</dim>
					<dim>1</dim>
				</port>
			</input>
			<output>
				<port id="2" precision="FP32">
					<dim>16</dim>
					<dim>8</dim>
					<dim>3</dim>
					<dim>3</dim>
				</port>
			</output>
		</layer>
		<layer id="66" name="__module.model.2.m.0.cv2.conv/aten::_convolution/Convolution" type="Convolution" version="opset1">
			<data strides="1, 1" dilations="1, 1" pads_begin="1, 1" pads_end="1, 1" auto_pad="explicit" />
			<input>
				<port id="0" precision="FP32">
					<dim>1</dim>
					<dim>8</dim>
					<dim>80</dim>
					<dim>80</dim>
				</port>
				<port id="1" precision="FP32">
					<dim>16</dim>
					<dim>8</dim>
					<dim>3</dim>
					<dim>3</dim>
				</port>
			</input>
			<output>
				<port id="2" precision="FP32">
					<dim>1</dim>
					<dim>16</dim>
					<dim>80</dim>
					<dim>80</dim>
				</port>
			</output>
		</layer>
		<layer id="67" name="__module.model.2.m.0.cv2.conv/aten::_convolution/Reshape" type="Const" version="opset1">
			<data element_type="f32" shape="1, 16, 1, 1" offset="26000" size="64" />
			<output>
				<port id="0" precision="FP32">
					<dim>1</dim>
					<dim>16</dim>
					<dim>1</dim>
					<dim>1</dim>
				</port>
			</output>
		</layer>
		<layer id="68" name="__module.model.2.m.0.cv2.conv/aten::_convolution/Add" type="Add" version="opset1">
			<data auto_broadcast="numpy" />
			<input>
				<port id="0" precision="FP32">
					<dim>1</dim>
					<dim>16</dim>
					<dim>80</dim>
					<dim>80</dim>
				</port>
				<port id="1" precision="FP32">
					<dim>1</dim>
					<dim>16</dim>
					<dim>1</dim>
					<dim>1</dim>
				</port>
			</input>
			<output>
				<port id="2" precision="FP32" names="143_1">
					<dim>1</dim>
					<dim>16</dim>
					<dim>80</dim>
					<dim>80</dim>
				</port>
			</output>
		</layer>
		<layer id="69" name="__module.model.21.cv3.2.1.1.act/aten::silu_/Swish_4" type="Swish" version="opset4">
			<input>
				<port id="0" precision="FP32">
					<dim>1</dim>
					<dim>16</dim>
					<dim>80</dim>
					<dim>80</dim>
				</port>
			</input>
			<output>
				<port id="1" precision="FP32" names="143,input.17">
					<dim>1</dim>
					<dim>16</dim>
					<dim>80</dim>
					<dim>80</dim>
				</port>
			</output>
		</layer>
		<layer id="70" name="__module.model.21.cv3.2.1.1.act/aten::silu_/Swish_4/fq_output_0/input_low" type="Const" version="opset1">
			<data element_type="f32" shape="" offset="26064" size="4" />
			<output>
				<port id="0" precision="FP32" />
			</output>
		</layer>
		<layer id="71" name="__module.model.21.cv3.2.1.1.act/aten::silu_/Swish_4/fq_output_0/input_high" type="Const" version="opset1">
			<data element_type="f32" shape="" offset="26068" size="4" />
			<output>
				<port id="0" precision="FP32" />
			</output>
		</layer>
		<layer id="72" name="__module.model.21.cv3.2.1.1.act/aten::silu_/Swish_4/fq_output_0/output_low" type="Const" version="opset1">
			<data element_type="f32" shape="" offset="26064" size="4" />
			<output>
				<port id="0" precision="FP32" />
			</output>
		</layer>
		<layer id="73" name="__module.model.21.cv3.2.1.1.act/aten::silu_/Swish_4/fq_output_0/output_high" type="Const" version="opset1">
			<data element_type="f32" shape="" offset="26068" size="4" />
			<output>
				<port id="0" precision="FP32" />
			</output>
		</layer>
		<layer id="74" name="__module.model.21.cv3.2.1.1.act/aten::silu_/Swish_4/fq_output_0" type="FakeQuantize" version="opset1">
			<data levels="256" auto_broadcast="numpy" />
			<input>
				<port id="0" precision="FP32">
					<dim>1</dim>
					<dim>16</dim>
					<dim>80</dim>
					<dim>80</dim>
				</port>
				<port id="1" precision="FP32" />
				<port id="2" precision="FP32" />
				<port id="3" precision="FP32" />
				<port id="4" precision="FP32" />
			</input>
			<output>
				<port id="5" precision="FP32">
					<dim>1</dim>
					<dim>16</dim>
					<dim>80</dim>
					<dim>80</dim>
				</port>
			</output>
		</layer>
		<layer id="75" name="__module.model.2.m.0/aten::add/Add" type="Add" version="opset1">
			<data auto_broadcast="numpy" />
			<input>
				<port id="0" precision="FP32">
					<dim>1</dim>
					<dim>16</dim>
					<dim>80</dim>
					<dim>80</dim>
				</port>
				<port id="1" precision="FP32">
					<dim>1</dim>
					<dim>16</dim>
					<dim>80</dim>
					<dim>80</dim>
				</port>
			</input>
			<output>
				<port id="2" precision="FP32" names="145">
					<dim>1</dim>
					<dim>16</dim>
					<dim>80</dim>
					<dim>80</dim>
				</port>
			</output>
		</layer>
		<layer id="76" name="__module.model.2.m.0/aten::add/Add/fq_output_0/input_low" type="Const" version="opset1">
			<data element_type="f32" shape="" offset="23528" size="4" />
			<output>
				<port id="0" precision="FP32" />
			</output>
		</layer>
		<layer id="77" name="__module.model.2.m.0/aten::add/Add/fq_output_0/input_high" type="Const" version="opset1">
			<data element_type="f32" shape="" offset="23532" size="4" />
			<output>
				<port id="0" precision="FP32" />
			</output>
		</layer>
		<layer id="78" name="__module.model.2.m.0/aten::add/Add/fq_output_0/output_low" type="Const" version="opset1">
			<data element_type="f32" shape="" offset="23528" size="4" />
			<output>
				<port id="0" precision="FP32" />
			</output>
		</layer>
		<layer id="79" name="__module.model.2.m.0/aten::add/Add/fq_output_0/output_high" type="Const" version="opset1">
			<data element_type="f32" shape="" offset="23532" size="4" />
			<output>
				<port id="0" precision="FP32" />
			</output>
		</layer>
		<layer id="80" name="__module.model.2.m.0/aten::add/Add/fq_output_0" type="FakeQuantize" version="opset1">
			<data levels="256" auto_broadcast="numpy" />
			<input>
				<port id="0" precision="FP32">
					<dim>1</dim>
					<dim>16</dim>
					<dim>80</dim>
					<dim>80</dim>
				</port>
				<port id="1" precision="FP32" />
				<port id="2" precision="FP32" />
				<port id="3" precision="FP32" />
				<port id="4" precision="FP32" />
			</input>
			<output>
				<port id="5" precision="FP32">
					<dim>1</dim>
					<dim>16</dim>
					<dim>80</dim>
					<dim>80</dim>
				</port>
			</output>
		</layer>
		<layer id="81" name="__module.model.2/aten::cat/Concat" type="Concat" version="opset1">
			<data axis="1" />
			<input>
				<port id="0" precision="FP32">
					<dim>1</dim>
					<dim>16</dim>
					<dim>80</dim>
					<dim>80</dim>
				</port>
				<port id="1" precision="FP32">
					<dim>1</dim>
					<dim>16</dim>
					<dim>80</dim>
					<dim>80</dim>
				</port>
				<port id="2" precision="FP32">
					<dim>1</dim>
					<dim>16</dim>
					<dim>80</dim>
					<dim>80</dim>
				</port>
			</input>
			<output>
				<port id="3" precision="FP32" names="147,input.19">
					<dim>1</dim>
					<dim>48</dim>
					<dim>80</dim>
					<dim>80</dim>
				</port>
			</output>
		</layer>
		<layer id="82" name="Constant_582224" type="Const" version="opset1">
			<data element_type="i8" shape="64, 48, 1, 1" offset="26072" size="3072" />
			<output>
				<port id="0" precision="I8">
					<dim>64</dim>
					<dim>48</dim>
					<dim>1</dim>
					<dim>1</dim>
				</port>
			</output>
		</layer>
		<layer id="83" name="Convert_582225" type="Convert" version="opset1">
			<data destination_type="f32" />
			<input>
				<port id="0" precision="I8">
					<dim>64</dim>
					<dim>48</dim>
					<dim>1</dim>
					<dim>1</dim>
				</port>
			</input>
			<output>
				<port id="1" precision="FP32">
					<dim>64</dim>
					<dim>48</dim>
					<dim>1</dim>
					<dim>1</dim>
				</port>
			</output>
		</layer>
		<layer id="84" name="Constant_582226" type="Const" version="opset1">
			<data element_type="f32" shape="64, 1, 1, 1" offset="29144" size="256" />
			<output>
				<port id="0" precision="FP32">
					<dim>64</dim>
					<dim>1</dim>
					<dim>1</dim>
					<dim>1</dim>
				</port>
			</output>
		</layer>
		<layer id="85" name="__module.model.2.cv2.conv/aten::_convolution/Convolution/fq_weights_1" type="Multiply" version="opset1">
			<data auto_broadcast="numpy" />
			<input>
				<port id="0" precision="FP32">
					<dim>64</dim>
					<dim>48</dim>
					<dim>1</dim>
					<dim>1</dim>
				</port>
				<port id="1" precision="FP32">
					<dim>64</dim>
					<dim>1</dim>
					<dim>1</dim>
					<dim>1</dim>
				</port>
			</input>
			<output>
				<port id="2" precision="FP32">
					<dim>64</dim>
					<dim>48</dim>
					<dim>1</dim>
					<dim>1</dim>
				</port>
			</output>
		</layer>
		<layer id="86" name="__module.model.2.cv2.conv/aten::_convolution/Convolution" type="Convolution" version="opset1">
			<data strides="1, 1" dilations="1, 1" pads_begin="0, 0" pads_end="0, 0" auto_pad="explicit" />
			<input>
				<port id="0" precision="FP32">
					<dim>1</dim>
					<dim>48</dim>
					<dim>80</dim>
					<dim>80</dim>
				</port>
				<port id="1" precision="FP32">
					<dim>64</dim>
					<dim>48</dim>
					<dim>1</dim>
					<dim>1</dim>
				</port>
			</input>
			<output>
				<port id="2" precision="FP32">
					<dim>1</dim>
					<dim>64</dim>
					<dim>80</dim>
					<dim>80</dim>
				</port>
			</output>
		</layer>
		<layer id="87" name="__module.model.2.cv2.conv/aten::_convolution/Reshape" type="Const" version="opset1">
			<data element_type="f32" shape="1, 64, 1, 1" offset="29400" size="256" />
			<output>
				<port id="0" precision="FP32">
					<dim>1</dim>
					<dim>64</dim>
					<dim>1</dim>
					<dim>1</dim>
				</port>
			</output>
		</layer>
		<layer id="88" name="__module.model.2.cv2.conv/aten::_convolution/Add" type="Add" version="opset1">
			<data auto_broadcast="numpy" />
			<input>
				<port id="0" precision="FP32">
					<dim>1</dim>
					<dim>64</dim>
					<dim>80</dim>
					<dim>80</dim>
				</port>
				<port id="1" precision="FP32">
					<dim>1</dim>
					<dim>64</dim>
					<dim>1</dim>
					<dim>1</dim>
				</port>
			</input>
			<output>
				<port id="2" precision="FP32" names="155_1">
					<dim>1</dim>
					<dim>64</dim>
					<dim>80</dim>
					<dim>80</dim>
				</port>
			</output>
		</layer>
		<layer id="89" name="__module.model.21.cv3.2.1.1.act/aten::silu_/Swish_5" type="Swish" version="opset4">
			<input>
				<port id="0" precision="FP32">
					<dim>1</dim>
					<dim>64</dim>
					<dim>80</dim>
					<dim>80</dim>
				</port>
			</input>
			<output>
				<port id="1" precision="FP32" names="155,input.21">
					<dim>1</dim>
					<dim>64</dim>
					<dim>80</dim>
					<dim>80</dim>
				</port>
			</output>
		</layer>
		<layer id="90" name="__module.model.21.cv3.2.1.1.act/aten::silu_/Swish_5/fq_output_0/input_low" type="Const" version="opset1">
			<data element_type="f32" shape="" offset="22240" size="4" />
			<output>
				<port id="0" precision="FP32" />
			</output>
		</layer>
		<layer id="91" name="__module.model.21.cv3.2.1.1.act/aten::silu_/Swish_5/fq_output_0/input_high" type="Const" version="opset1">
			<data element_type="f32" shape="" offset="29656" size="4" />
			<output>
				<port id="0" precision="FP32" />
			</output>
		</layer>
		<layer id="92" name="__module.model.21.cv3.2.1.1.act/aten::silu_/Swish_5/fq_output_0/output_low" type="Const" version="opset1">
			<data element_type="f32" shape="" offset="22240" size="4" />
			<output>
				<port id="0" precision="FP32" />
			</output>
		</layer>
		<layer id="93" name="__module.model.21.cv3.2.1.1.act/aten::silu_/Swish_5/fq_output_0/output_high" type="Const" version="opset1">
			<data element_type="f32" shape="" offset="29656" size="4" />
			<output>
				<port id="0" precision="FP32" />
			</output>
		</layer>
		<layer id="94" name="__module.model.21.cv3.2.1.1.act/aten::silu_/Swish_5/fq_output_0" type="FakeQuantize" version="opset1">
			<data levels="256" auto_broadcast="numpy" />
			<input>
				<port id="0" precision="FP32">
					<dim>1</dim>
					<dim>64</dim>
					<dim>80</dim>
					<dim>80</dim>
				</port>
				<port id="1" precision="FP32" />
				<port id="2" precision="FP32" />
				<port id="3" precision="FP32" />
				<port id="4" precision="FP32" />
			</input>
			<output>
				<port id="5" precision="FP32">
					<dim>1</dim>
					<dim>64</dim>
					<dim>80</dim>
					<dim>80</dim>
				</port>
			</output>
		</layer>
		<layer id="95" name="Constant_582228" type="Const" version="opset1">
			<data element_type="i8" shape="64, 64, 3, 3" offset="29660" size="36864" />
			<output>
				<port id="0" precision="I8">
					<dim>64</dim>
					<dim>64</dim>
					<dim>3</dim>
					<dim>3</dim>
				</port>
			</output>
		</layer>
		<layer id="96" name="Convert_582229" type="Convert" version="opset1">
			<data destination_type="f32" />
			<input>
				<port id="0" precision="I8">
					<dim>64</dim>
					<dim>64</dim>
					<dim>3</dim>
					<dim>3</dim>
				</port>
			</input>
			<output>
				<port id="1" precision="FP32">
					<dim>64</dim>
					<dim>64</dim>
					<dim>3</dim>
					<dim>3</dim>
				</port>
			</output>
		</layer>
		<layer id="97" name="Constant_582230" type="Const" version="opset1">
			<data element_type="f32" shape="64, 1, 1, 1" offset="66524" size="256" />
			<output>
				<port id="0" precision="FP32">
					<dim>64</dim>
					<dim>1</dim>
					<dim>1</dim>
					<dim>1</dim>
				</port>
			</output>
		</layer>
		<layer id="98" name="__module.model.3.conv/aten::_convolution/Convolution/fq_weights_1" type="Multiply" version="opset1">
			<data auto_broadcast="numpy" />
			<input>
				<port id="0" precision="FP32">
					<dim>64</dim>
					<dim>64</dim>
					<dim>3</dim>
					<dim>3</dim>
				</port>
				<port id="1" precision="FP32">
					<dim>64</dim>
					<dim>1</dim>
					<dim>1</dim>
					<dim>1</dim>
				</port>
			</input>
			<output>
				<port id="2" precision="FP32">
					<dim>64</dim>
					<dim>64</dim>
					<dim>3</dim>
					<dim>3</dim>
				</port>
			</output>
		</layer>
		<layer id="99" name="__module.model.3.conv/aten::_convolution/Convolution" type="Convolution" version="opset1">
			<data strides="2, 2" dilations="1, 1" pads_begin="1, 1" pads_end="1, 1" auto_pad="explicit" />
			<input>
				<port id="0" precision="FP32">
					<dim>1</dim>
					<dim>64</dim>
					<dim>80</dim>
					<dim>80</dim>
				</port>
				<port id="1" precision="FP32">
					<dim>64</dim>
					<dim>64</dim>
					<dim>3</dim>
					<dim>3</dim>
				</port>
			</input>
			<output>
				<port id="2" precision="FP32">
					<dim>1</dim>
					<dim>64</dim>
					<dim>40</dim>
					<dim>40</dim>
				</port>
			</output>
		</layer>
		<layer id="100" name="__module.model.3.conv/aten::_convolution/Reshape" type="Const" version="opset1">
			<data element_type="f32" shape="1, 64, 1, 1" offset="66780" size="256" />
			<output>
				<port id="0" precision="FP32">
					<dim>1</dim>
					<dim>64</dim>
					<dim>1</dim>
					<dim>1</dim>
				</port>
			</output>
		</layer>
		<layer id="101" name="__module.model.3.conv/aten::_convolution/Add" type="Add" version="opset1">
			<data auto_broadcast="numpy" />
			<input>
				<port id="0" precision="FP32">
					<dim>1</dim>
					<dim>64</dim>
					<dim>40</dim>
					<dim>40</dim>
				</port>
				<port id="1" precision="FP32">
					<dim>1</dim>
					<dim>64</dim>
					<dim>1</dim>
					<dim>1</dim>
				</port>
			</input>
			<output>
				<port id="2" precision="FP32" names="169_1">
					<dim>1</dim>
					<dim>64</dim>
					<dim>40</dim>
					<dim>40</dim>
				</port>
			</output>
		</layer>
		<layer id="102" name="__module.model.21.cv3.2.1.1.act/aten::silu_/Swish_6" type="Swish" version="opset4">
			<input>
				<port id="0" precision="FP32">
					<dim>1</dim>
					<dim>64</dim>
					<dim>40</dim>
					<dim>40</dim>
				</port>
			</input>
			<output>
				<port id="1" precision="FP32" names="169,input.25">
					<dim>1</dim>
					<dim>64</dim>
					<dim>40</dim>
					<dim>40</dim>
				</port>
			</output>
		</layer>
		<layer id="103" name="__module.model.21.cv3.2.1.1.act/aten::silu_/Swish_6/fq_output_0/input_low" type="Const" version="opset1">
			<data element_type="f32" shape="" offset="67036" size="4" />
			<output>
				<port id="0" precision="FP32" />
			</output>
		</layer>
		<layer id="104" name="__module.model.21.cv3.2.1.1.act/aten::silu_/Swish_6/fq_output_0/input_high" type="Const" version="opset1">
			<data element_type="f32" shape="" offset="67040" size="4" />
			<output>
				<port id="0" precision="FP32" />
			</output>
		</layer>
		<layer id="105" name="__module.model.21.cv3.2.1.1.act/aten::silu_/Swish_6/fq_output_0/output_low" type="Const" version="opset1">
			<data element_type="f32" shape="" offset="67036" size="4" />
			<output>
				<port id="0" precision="FP32" />
			</output>
		</layer>
		<layer id="106" name="__module.model.21.cv3.2.1.1.act/aten::silu_/Swish_6/fq_output_0/output_high" type="Const" version="opset1">
			<data element_type="f32" shape="" offset="67040" size="4" />
			<output>
				<port id="0" precision="FP32" />
			</output>
		</layer>
		<layer id="107" name="__module.model.21.cv3.2.1.1.act/aten::silu_/Swish_6/fq_output_0" type="FakeQuantize" version="opset1">
			<data levels="256" auto_broadcast="numpy" />
			<input>
				<port id="0" precision="FP32">
					<dim>1</dim>
					<dim>64</dim>
					<dim>40</dim>
					<dim>40</dim>
				</port>
				<port id="1" precision="FP32" />
				<port id="2" precision="FP32" />
				<port id="3" precision="FP32" />
				<port id="4" precision="FP32" />
			</input>
			<output>
				<port id="5" precision="FP32">
					<dim>1</dim>
					<dim>64</dim>
					<dim>40</dim>
					<dim>40</dim>
				</port>
			</output>
		</layer>
		<layer id="108" name="Constant_582232" type="Const" version="opset1">
			<data element_type="i8" shape="64, 64, 1, 1" offset="67044" size="4096" />
			<output>
				<port id="0" precision="I8">
					<dim>64</dim>
					<dim>64</dim>
					<dim>1</dim>
					<dim>1</dim>
				</port>
			</output>
		</layer>
		<layer id="109" name="Convert_582233" type="Convert" version="opset1">
			<data destination_type="f32" />
			<input>
				<port id="0" precision="I8">
					<dim>64</dim>
					<dim>64</dim>
					<dim>1</dim>
					<dim>1</dim>
				</port>
			</input>
			<output>
				<port id="1" precision="FP32">
					<dim>64</dim>
					<dim>64</dim>
					<dim>1</dim>
					<dim>1</dim>
				</port>
			</output>
		</layer>
		<layer id="110" name="Constant_582234" type="Const" version="opset1">
			<data element_type="f32" shape="64, 1, 1, 1" offset="71140" size="256" />
			<output>
				<port id="0" precision="FP32">
					<dim>64</dim>
					<dim>1</dim>
					<dim>1</dim>
					<dim>1</dim>
				</port>
			</output>
		</layer>
		<layer id="111" name="__module.model.4.cv1.conv/aten::_convolution/Convolution/fq_weights_1" type="Multiply" version="opset1">
			<data auto_broadcast="numpy" />
			<input>
				<port id="0" precision="FP32">
					<dim>64</dim>
					<dim>64</dim>
					<dim>1</dim>
					<dim>1</dim>
				</port>
				<port id="1" precision="FP32">
					<dim>64</dim>
					<dim>1</dim>
					<dim>1</dim>
					<dim>1</dim>
				</port>
			</input>
			<output>
				<port id="2" precision="FP32">
					<dim>64</dim>
					<dim>64</dim>
					<dim>1</dim>
					<dim>1</dim>
				</port>
			</output>
		</layer>
		<layer id="112" name="__module.model.4.cv1.conv/aten::_convolution/Convolution" type="Convolution" version="opset1">
			<data strides="1, 1" dilations="1, 1" pads_begin="0, 0" pads_end="0, 0" auto_pad="explicit" />
			<input>
				<port id="0" precision="FP32">
					<dim>1</dim>
					<dim>64</dim>
					<dim>40</dim>
					<dim>40</dim>
				</port>
				<port id="1" precision="FP32">
					<dim>64</dim>
					<dim>64</dim>
					<dim>1</dim>
					<dim>1</dim>
				</port>
			</input>
			<output>
				<port id="2" precision="FP32">
					<dim>1</dim>
					<dim>64</dim>
					<dim>40</dim>
					<dim>40</dim>
				</port>
			</output>
		</layer>
		<layer id="113" name="__module.model.4.cv1.conv/aten::_convolution/Reshape" type="Const" version="opset1">
			<data element_type="f32" shape="1, 64, 1, 1" offset="71396" size="256" />
			<output>
				<port id="0" precision="FP32">
					<dim>1</dim>
					<dim>64</dim>
					<dim>1</dim>
					<dim>1</dim>
				</port>
			</output>
		</layer>
		<layer id="114" name="__module.model.4.cv1.conv/aten::_convolution/Add" type="Add" version="opset1">
			<data auto_broadcast="numpy" />
			<input>
				<port id="0" precision="FP32">
					<dim>1</dim>
					<dim>64</dim>
					<dim>40</dim>
					<dim>40</dim>
				</port>
				<port id="1" precision="FP32">
					<dim>1</dim>
					<dim>64</dim>
					<dim>1</dim>
					<dim>1</dim>
				</port>
			</input>
			<output>
				<port id="2" precision="FP32" names="187_1">
					<dim>1</dim>
					<dim>64</dim>
					<dim>40</dim>
					<dim>40</dim>
				</port>
			</output>
		</layer>
		<layer id="115" name="__module.model.21.cv3.2.1.1.act/aten::silu_/Swish_7" type="Swish" version="opset4">
			<input>
				<port id="0" precision="FP32">
					<dim>1</dim>
					<dim>64</dim>
					<dim>40</dim>
					<dim>40</dim>
				</port>
			</input>
			<output>
				<port id="1" precision="FP32" names="187,input.29">
					<dim>1</dim>
					<dim>64</dim>
					<dim>40</dim>
					<dim>40</dim>
				</port>
			</output>
		</layer>
		<layer id="116" name="__module.model.21.cv3.2.1.1.act/aten::silu_/Swish_7/fq_output_0/input_low" type="Const" version="opset1">
			<data element_type="f32" shape="" offset="71652" size="4" />
			<output>
				<port id="0" precision="FP32" />
			</output>
		</layer>
		<layer id="117" name="__module.model.21.cv3.2.1.1.act/aten::silu_/Swish_7/fq_output_0/input_high" type="Const" version="opset1">
			<data element_type="f32" shape="" offset="71656" size="4" />
			<output>
				<port id="0" precision="FP32" />
			</output>
		</layer>
		<layer id="118" name="__module.model.21.cv3.2.1.1.act/aten::silu_/Swish_7/fq_output_0/output_low" type="Const" version="opset1">
			<data element_type="f32" shape="" offset="71652" size="4" />
			<output>
				<port id="0" precision="FP32" />
			</output>
		</layer>
		<layer id="119" name="__module.model.21.cv3.2.1.1.act/aten::silu_/Swish_7/fq_output_0/output_high" type="Const" version="opset1">
			<data element_type="f32" shape="" offset="71656" size="4" />
			<output>
				<port id="0" precision="FP32" />
			</output>
		</layer>
		<layer id="120" name="__module.model.21.cv3.2.1.1.act/aten::silu_/Swish_7/fq_output_0" type="FakeQuantize" version="opset1">
			<data levels="256" auto_broadcast="numpy" />
			<input>
				<port id="0" precision="FP32">
					<dim>1</dim>
					<dim>64</dim>
					<dim>40</dim>
					<dim>40</dim>
				</port>
				<port id="1" precision="FP32" />
				<port id="2" precision="FP32" />
				<port id="3" precision="FP32" />
				<port id="4" precision="FP32" />
			</input>
			<output>
				<port id="5" precision="FP32">
					<dim>1</dim>
					<dim>64</dim>
					<dim>40</dim>
					<dim>40</dim>
				</port>
			</output>
		</layer>
		<layer id="121" name="175" type="Const" version="opset1">
			<data element_type="i64" shape="" offset="23536" size="8" />
			<output>
				<port id="0" precision="I64" names="175" />
			</output>
		</layer>
		<layer id="122" name="Constant_470" type="Const" version="opset1">
			<data element_type="i64" shape="2" offset="71660" size="16" />
			<output>
				<port id="0" precision="I64" names="189">
					<dim>2</dim>
				</port>
			</output>
		</layer>
		<layer id="123" name="__module.model.4/aten::split_with_sizes/VariadicSplit" type="VariadicSplit" version="opset1">
			<input>
				<port id="0" precision="FP32">
					<dim>1</dim>
					<dim>64</dim>
					<dim>40</dim>
					<dim>40</dim>
				</port>
				<port id="1" precision="I64" />
				<port id="2" precision="I64">
					<dim>2</dim>
				</port>
			</input>
			<output>
				<port id="3" precision="FP32" names="191">
					<dim>1</dim>
					<dim>32</dim>
					<dim>40</dim>
					<dim>40</dim>
				</port>
				<port id="4" precision="FP32" names="192,input.31">
					<dim>1</dim>
					<dim>32</dim>
					<dim>40</dim>
					<dim>40</dim>
				</port>
			</output>
		</layer>
		<layer id="124" name="Constant_582236" type="Const" version="opset1">
			<data element_type="i8" shape="16, 32, 3, 3" offset="71676" size="4608" />
			<output>
				<port id="0" precision="I8">
					<dim>16</dim>
					<dim>32</dim>
					<dim>3</dim>
					<dim>3</dim>
				</port>
			</output>
		</layer>
		<layer id="125" name="Convert_582237" type="Convert" version="opset1">
			<data destination_type="f32" />
			<input>
				<port id="0" precision="I8">
					<dim>16</dim>
					<dim>32</dim>
					<dim>3</dim>
					<dim>3</dim>
				</port>
			</input>
			<output>
				<port id="1" precision="FP32">
					<dim>16</dim>
					<dim>32</dim>
					<dim>3</dim>
					<dim>3</dim>
				</port>
			</output>
		</layer>
		<layer id="126" name="Constant_582238" type="Const" version="opset1">
			<data element_type="f32" shape="16, 1, 1, 1" offset="76284" size="64" />
			<output>
				<port id="0" precision="FP32">
					<dim>16</dim>
					<dim>1</dim>
					<dim>1</dim>
					<dim>1</dim>
				</port>
			</output>
		</layer>
		<layer id="127" name="__module.model.4.m.0.cv1.conv/aten::_convolution/Convolution/fq_weights_1" type="Multiply" version="opset1">
			<data auto_broadcast="numpy" />
			<input>
				<port id="0" precision="FP32">
					<dim>16</dim>
					<dim>32</dim>
					<dim>3</dim>
					<dim>3</dim>
				</port>
				<port id="1" precision="FP32">
					<dim>16</dim>
					<dim>1</dim>
					<dim>1</dim>
					<dim>1</dim>
				</port>
			</input>
			<output>
				<port id="2" precision="FP32">
					<dim>16</dim>
					<dim>32</dim>
					<dim>3</dim>
					<dim>3</dim>
				</port>
			</output>
		</layer>
		<layer id="128" name="__module.model.4.m.0.cv1.conv/aten::_convolution/Convolution" type="Convolution" version="opset1">
			<data strides="1, 1" dilations="1, 1" pads_begin="1, 1" pads_end="1, 1" auto_pad="explicit" />
			<input>
				<port id="0" precision="FP32">
					<dim>1</dim>
					<dim>32</dim>
					<dim>40</dim>
					<dim>40</dim>
				</port>
				<port id="1" precision="FP32">
					<dim>16</dim>
					<dim>32</dim>
					<dim>3</dim>
					<dim>3</dim>
				</port>
			</input>
			<output>
				<port id="2" precision="FP32">
					<dim>1</dim>
					<dim>16</dim>
					<dim>40</dim>
					<dim>40</dim>
				</port>
			</output>
		</layer>
		<layer id="129" name="__module.model.4.m.0.cv1.conv/aten::_convolution/Reshape" type="Const" version="opset1">
			<data element_type="f32" shape="1, 16, 1, 1" offset="76348" size="64" />
			<output>
				<port id="0" precision="FP32">
					<dim>1</dim>
					<dim>16</dim>
					<dim>1</dim>
					<dim>1</dim>
				</port>
			</output>
		</layer>
		<layer id="130" name="__module.model.4.m.0.cv1.conv/aten::_convolution/Add" type="Add" version="opset1">
			<data auto_broadcast="numpy" />
			<input>
				<port id="0" precision="FP32">
					<dim>1</dim>
					<dim>16</dim>
					<dim>40</dim>
					<dim>40</dim>
				</port>
				<port id="1" precision="FP32">
					<dim>1</dim>
					<dim>16</dim>
					<dim>1</dim>
					<dim>1</dim>
				</port>
			</input>
			<output>
				<port id="2" precision="FP32" names="202_1">
					<dim>1</dim>
					<dim>16</dim>
					<dim>40</dim>
					<dim>40</dim>
				</port>
			</output>
		</layer>
		<layer id="131" name="__module.model.21.cv3.2.1.1.act/aten::silu_/Swish_8" type="Swish" version="opset4">
			<input>
				<port id="0" precision="FP32">
					<dim>1</dim>
					<dim>16</dim>
					<dim>40</dim>
					<dim>40</dim>
				</port>
			</input>
			<output>
				<port id="1" precision="FP32" names="202,input.33">
					<dim>1</dim>
					<dim>16</dim>
					<dim>40</dim>
					<dim>40</dim>
				</port>
			</output>
		</layer>
		<layer id="132" name="__module.model.21.cv3.2.1.1.act/aten::silu_/Swish_8/fq_output_0/input_low" type="Const" version="opset1">
			<data element_type="f32" shape="" offset="22240" size="4" />
			<output>
				<port id="0" precision="FP32" />
			</output>
		</layer>
		<layer id="133" name="__module.model.21.cv3.2.1.1.act/aten::silu_/Swish_8/fq_output_0/input_high" type="Const" version="opset1">
			<data element_type="f32" shape="" offset="76412" size="4" />
			<output>
				<port id="0" precision="FP32" />
			</output>
		</layer>
		<layer id="134" name="__module.model.21.cv3.2.1.1.act/aten::silu_/Swish_8/fq_output_0/output_low" type="Const" version="opset1">
			<data element_type="f32" shape="" offset="22240" size="4" />
			<output>
				<port id="0" precision="FP32" />
			</output>
		</layer>
		<layer id="135" name="__module.model.21.cv3.2.1.1.act/aten::silu_/Swish_8/fq_output_0/output_high" type="Const" version="opset1">
			<data element_type="f32" shape="" offset="76412" size="4" />
			<output>
				<port id="0" precision="FP32" />
			</output>
		</layer>
		<layer id="136" name="__module.model.21.cv3.2.1.1.act/aten::silu_/Swish_8/fq_output_0" type="FakeQuantize" version="opset1">
			<data levels="256" auto_broadcast="numpy" />
			<input>
				<port id="0" precision="FP32">
					<dim>1</dim>
					<dim>16</dim>
					<dim>40</dim>
					<dim>40</dim>
				</port>
				<port id="1" precision="FP32" />
				<port id="2" precision="FP32" />
				<port id="3" precision="FP32" />
				<port id="4" precision="FP32" />
			</input>
			<output>
				<port id="5" precision="FP32">
					<dim>1</dim>
					<dim>16</dim>
					<dim>40</dim>
					<dim>40</dim>
				</port>
			</output>
		</layer>
		<layer id="137" name="Constant_582240" type="Const" version="opset1">
			<data element_type="i8" shape="32, 16, 3, 3" offset="76416" size="4608" />
			<output>
				<port id="0" precision="I8">
					<dim>32</dim>
					<dim>16</dim>
					<dim>3</dim>
					<dim>3</dim>
				</port>
			</output>
		</layer>
		<layer id="138" name="Convert_582241" type="Convert" version="opset1">
			<data destination_type="f32" />
			<input>
				<port id="0" precision="I8">
					<dim>32</dim>
					<dim>16</dim>
					<dim>3</dim>
					<dim>3</dim>
				</port>
			</input>
			<output>
				<port id="1" precision="FP32">
					<dim>32</dim>
					<dim>16</dim>
					<dim>3</dim>
					<dim>3</dim>
				</port>
			</output>
		</layer>
		<layer id="139" name="Constant_582242" type="Const" version="opset1">
			<data element_type="f32" shape="32, 1, 1, 1" offset="81024" size="128" />
			<output>
				<port id="0" precision="FP32">
					<dim>32</dim>
					<dim>1</dim>
					<dim>1</dim>
					<dim>1</dim>
				</port>
			</output>
		</layer>
		<layer id="140" name="__module.model.4.m.0.cv2.conv/aten::_convolution/Convolution/fq_weights_1" type="Multiply" version="opset1">
			<data auto_broadcast="numpy" />
			<input>
				<port id="0" precision="FP32">
					<dim>32</dim>
					<dim>16</dim>
					<dim>3</dim>
					<dim>3</dim>
				</port>
				<port id="1" precision="FP32">
					<dim>32</dim>
					<dim>1</dim>
					<dim>1</dim>
					<dim>1</dim>
				</port>
			</input>
			<output>
				<port id="2" precision="FP32">
					<dim>32</dim>
					<dim>16</dim>
					<dim>3</dim>
					<dim>3</dim>
				</port>
			</output>
		</layer>
		<layer id="141" name="__module.model.4.m.0.cv2.conv/aten::_convolution/Convolution" type="Convolution" version="opset1">
			<data strides="1, 1" dilations="1, 1" pads_begin="1, 1" pads_end="1, 1" auto_pad="explicit" />
			<input>
				<port id="0" precision="FP32">
					<dim>1</dim>
					<dim>16</dim>
					<dim>40</dim>
					<dim>40</dim>
				</port>
				<port id="1" precision="FP32">
					<dim>32</dim>
					<dim>16</dim>
					<dim>3</dim>
					<dim>3</dim>
				</port>
			</input>
			<output>
				<port id="2" precision="FP32">
					<dim>1</dim>
					<dim>32</dim>
					<dim>40</dim>
					<dim>40</dim>
				</port>
			</output>
		</layer>
		<layer id="142" name="__module.model.4.m.0.cv2.conv/aten::_convolution/Reshape" type="Const" version="opset1">
			<data element_type="f32" shape="1, 32, 1, 1" offset="81152" size="128" />
			<output>
				<port id="0" precision="FP32">
					<dim>1</dim>
					<dim>32</dim>
					<dim>1</dim>
					<dim>1</dim>
				</port>
			</output>
		</layer>
		<layer id="143" name="__module.model.4.m.0.cv2.conv/aten::_convolution/Add" type="Add" version="opset1">
			<data auto_broadcast="numpy" />
			<input>
				<port id="0" precision="FP32">
					<dim>1</dim>
					<dim>32</dim>
					<dim>40</dim>
					<dim>40</dim>
				</port>
				<port id="1" precision="FP32">
					<dim>1</dim>
					<dim>32</dim>
					<dim>1</dim>
					<dim>1</dim>
				</port>
			</input>
			<output>
				<port id="2" precision="FP32" names="211_1">
					<dim>1</dim>
					<dim>32</dim>
					<dim>40</dim>
					<dim>40</dim>
				</port>
			</output>
		</layer>
		<layer id="144" name="__module.model.21.cv3.2.1.1.act/aten::silu_/Swish_9" type="Swish" version="opset4">
			<input>
				<port id="0" precision="FP32">
					<dim>1</dim>
					<dim>32</dim>
					<dim>40</dim>
					<dim>40</dim>
				</port>
			</input>
			<output>
				<port id="1" precision="FP32" names="211,input.37">
					<dim>1</dim>
					<dim>32</dim>
					<dim>40</dim>
					<dim>40</dim>
				</port>
			</output>
		</layer>
		<layer id="145" name="__module.model.21.cv3.2.1.1.act/aten::silu_/Swish_9/fq_output_0/input_low" type="Const" version="opset1">
			<data element_type="f32" shape="" offset="81280" size="4" />
			<output>
				<port id="0" precision="FP32" />
			</output>
		</layer>
		<layer id="146" name="__module.model.21.cv3.2.1.1.act/aten::silu_/Swish_9/fq_output_0/input_high" type="Const" version="opset1">
			<data element_type="f32" shape="" offset="81284" size="4" />
			<output>
				<port id="0" precision="FP32" />
			</output>
		</layer>
		<layer id="147" name="__module.model.21.cv3.2.1.1.act/aten::silu_/Swish_9/fq_output_0/output_low" type="Const" version="opset1">
			<data element_type="f32" shape="" offset="81280" size="4" />
			<output>
				<port id="0" precision="FP32" />
			</output>
		</layer>
		<layer id="148" name="__module.model.21.cv3.2.1.1.act/aten::silu_/Swish_9/fq_output_0/output_high" type="Const" version="opset1">
			<data element_type="f32" shape="" offset="81284" size="4" />
			<output>
				<port id="0" precision="FP32" />
			</output>
		</layer>
		<layer id="149" name="__module.model.21.cv3.2.1.1.act/aten::silu_/Swish_9/fq_output_0" type="FakeQuantize" version="opset1">
			<data levels="256" auto_broadcast="numpy" />
			<input>
				<port id="0" precision="FP32">
					<dim>1</dim>
					<dim>32</dim>
					<dim>40</dim>
					<dim>40</dim>
				</port>
				<port id="1" precision="FP32" />
				<port id="2" precision="FP32" />
				<port id="3" precision="FP32" />
				<port id="4" precision="FP32" />
			</input>
			<output>
				<port id="5" precision="FP32">
					<dim>1</dim>
					<dim>32</dim>
					<dim>40</dim>
					<dim>40</dim>
				</port>
			</output>
		</layer>
		<layer id="150" name="__module.model.4.m.0/aten::add/Add" type="Add" version="opset1">
			<data auto_broadcast="numpy" />
			<input>
				<port id="0" precision="FP32">
					<dim>1</dim>
					<dim>32</dim>
					<dim>40</dim>
					<dim>40</dim>
				</port>
				<port id="1" precision="FP32">
					<dim>1</dim>
					<dim>32</dim>
					<dim>40</dim>
					<dim>40</dim>
				</port>
			</input>
			<output>
				<port id="2" precision="FP32" names="213">
					<dim>1</dim>
					<dim>32</dim>
					<dim>40</dim>
					<dim>40</dim>
				</port>
			</output>
		</layer>
		<layer id="151" name="__module.model.4.m.0/aten::add/Add/fq_output_0/input_low" type="Const" version="opset1">
			<data element_type="f32" shape="" offset="71652" size="4" />
			<output>
				<port id="0" precision="FP32" />
			</output>
		</layer>
		<layer id="152" name="__module.model.4.m.0/aten::add/Add/fq_output_0/input_high" type="Const" version="opset1">
			<data element_type="f32" shape="" offset="71656" size="4" />
			<output>
				<port id="0" precision="FP32" />
			</output>
		</layer>
		<layer id="153" name="__module.model.4.m.0/aten::add/Add/fq_output_0/output_low" type="Const" version="opset1">
			<data element_type="f32" shape="" offset="71652" size="4" />
			<output>
				<port id="0" precision="FP32" />
			</output>
		</layer>
		<layer id="154" name="__module.model.4.m.0/aten::add/Add/fq_output_0/output_high" type="Const" version="opset1">
			<data element_type="f32" shape="" offset="71656" size="4" />
			<output>
				<port id="0" precision="FP32" />
			</output>
		</layer>
		<layer id="155" name="__module.model.4.m.0/aten::add/Add/fq_output_0" type="FakeQuantize" version="opset1">
			<data levels="256" auto_broadcast="numpy" />
			<input>
				<port id="0" precision="FP32">
					<dim>1</dim>
					<dim>32</dim>
					<dim>40</dim>
					<dim>40</dim>
				</port>
				<port id="1" precision="FP32" />
				<port id="2" precision="FP32" />
				<port id="3" precision="FP32" />
				<port id="4" precision="FP32" />
			</input>
			<output>
				<port id="5" precision="FP32">
					<dim>1</dim>
					<dim>32</dim>
					<dim>40</dim>
					<dim>40</dim>
				</port>
			</output>
		</layer>
		<layer id="156" name="__module.model.4/aten::cat/Concat" type="Concat" version="opset1">
			<data axis="1" />
			<input>
				<port id="0" precision="FP32">
					<dim>1</dim>
					<dim>32</dim>
					<dim>40</dim>
					<dim>40</dim>
				</port>
				<port id="1" precision="FP32">
					<dim>1</dim>
					<dim>32</dim>
					<dim>40</dim>
					<dim>40</dim>
				</port>
				<port id="2" precision="FP32">
					<dim>1</dim>
					<dim>32</dim>
					<dim>40</dim>
					<dim>40</dim>
				</port>
			</input>
			<output>
				<port id="3" precision="FP32" names="215,input.39">
					<dim>1</dim>
					<dim>96</dim>
					<dim>40</dim>
					<dim>40</dim>
				</port>
			</output>
		</layer>
		<layer id="157" name="Constant_582244" type="Const" version="opset1">
			<data element_type="i8" shape="128, 96, 1, 1" offset="81288" size="12288" />
			<output>
				<port id="0" precision="I8">
					<dim>128</dim>
					<dim>96</dim>
					<dim>1</dim>
					<dim>1</dim>
				</port>
			</output>
		</layer>
		<layer id="158" name="Convert_582245" type="Convert" version="opset1">
			<data destination_type="f32" />
			<input>
				<port id="0" precision="I8">
					<dim>128</dim>
					<dim>96</dim>
					<dim>1</dim>
					<dim>1</dim>
				</port>
			</input>
			<output>
				<port id="1" precision="FP32">
					<dim>128</dim>
					<dim>96</dim>
					<dim>1</dim>
					<dim>1</dim>
				</port>
			</output>
		</layer>
		<layer id="159" name="Constant_582246" type="Const" version="opset1">
			<data element_type="f32" shape="128, 1, 1, 1" offset="93576" size="512" />
			<output>
				<port id="0" precision="FP32">
					<dim>128</dim>
					<dim>1</dim>
					<dim>1</dim>
					<dim>1</dim>
				</port>
			</output>
		</layer>
		<layer id="160" name="__module.model.4.cv2.conv/aten::_convolution/Convolution/fq_weights_1" type="Multiply" version="opset1">
			<data auto_broadcast="numpy" />
			<input>
				<port id="0" precision="FP32">
					<dim>128</dim>
					<dim>96</dim>
					<dim>1</dim>
					<dim>1</dim>
				</port>
				<port id="1" precision="FP32">
					<dim>128</dim>
					<dim>1</dim>
					<dim>1</dim>
					<dim>1</dim>
				</port>
			</input>
			<output>
				<port id="2" precision="FP32">
					<dim>128</dim>
					<dim>96</dim>
					<dim>1</dim>
					<dim>1</dim>
				</port>
			</output>
		</layer>
		<layer id="161" name="__module.model.4.cv2.conv/aten::_convolution/Convolution" type="Convolution" version="opset1">
			<data strides="1, 1" dilations="1, 1" pads_begin="0, 0" pads_end="0, 0" auto_pad="explicit" />
			<input>
				<port id="0" precision="FP32">
					<dim>1</dim>
					<dim>96</dim>
					<dim>40</dim>
					<dim>40</dim>
				</port>
				<port id="1" precision="FP32">
					<dim>128</dim>
					<dim>96</dim>
					<dim>1</dim>
					<dim>1</dim>
				</port>
			</input>
			<output>
				<port id="2" precision="FP32">
					<dim>1</dim>
					<dim>128</dim>
					<dim>40</dim>
					<dim>40</dim>
				</port>
			</output>
		</layer>
		<layer id="162" name="__module.model.4.cv2.conv/aten::_convolution/Reshape" type="Const" version="opset1">
			<data element_type="f32" shape="1, 128, 1, 1" offset="94088" size="512" />
			<output>
				<port id="0" precision="FP32">
					<dim>1</dim>
					<dim>128</dim>
					<dim>1</dim>
					<dim>1</dim>
				</port>
			</output>
		</layer>
		<layer id="163" name="__module.model.4.cv2.conv/aten::_convolution/Add" type="Add" version="opset1">
			<data auto_broadcast="numpy" />
			<input>
				<port id="0" precision="FP32">
					<dim>1</dim>
					<dim>128</dim>
					<dim>40</dim>
					<dim>40</dim>
				</port>
				<port id="1" precision="FP32">
					<dim>1</dim>
					<dim>128</dim>
					<dim>1</dim>
					<dim>1</dim>
				</port>
			</input>
			<output>
				<port id="2" precision="FP32" names="223_1">
					<dim>1</dim>
					<dim>128</dim>
					<dim>40</dim>
					<dim>40</dim>
				</port>
			</output>
		</layer>
		<layer id="164" name="__module.model.21.cv3.2.1.1.act/aten::silu_/Swish_10" type="Swish" version="opset4">
			<input>
				<port id="0" precision="FP32">
					<dim>1</dim>
					<dim>128</dim>
					<dim>40</dim>
					<dim>40</dim>
				</port>
			</input>
			<output>
				<port id="1" precision="FP32" names="223,input.41">
					<dim>1</dim>
					<dim>128</dim>
					<dim>40</dim>
					<dim>40</dim>
				</port>
			</output>
		</layer>
		<layer id="165" name="__module.model.21.cv3.2.1.1.act/aten::silu_/Swish_10/fq_output_0/input_low" type="Const" version="opset1">
			<data element_type="f32" shape="" offset="94600" size="4" />
			<output>
				<port id="0" precision="FP32" />
			</output>
		</layer>
		<layer id="166" name="__module.model.21.cv3.2.1.1.act/aten::silu_/Swish_10/fq_output_0/input_high" type="Const" version="opset1">
			<data element_type="f32" shape="" offset="94604" size="4" />
			<output>
				<port id="0" precision="FP32" />
			</output>
		</layer>
		<layer id="167" name="__module.model.21.cv3.2.1.1.act/aten::silu_/Swish_10/fq_output_0/output_low" type="Const" version="opset1">
			<data element_type="f32" shape="" offset="94600" size="4" />
			<output>
				<port id="0" precision="FP32" />
			</output>
		</layer>
		<layer id="168" name="__module.model.21.cv3.2.1.1.act/aten::silu_/Swish_10/fq_output_0/output_high" type="Const" version="opset1">
			<data element_type="f32" shape="" offset="94604" size="4" />
			<output>
				<port id="0" precision="FP32" />
			</output>
		</layer>
		<layer id="169" name="__module.model.21.cv3.2.1.1.act/aten::silu_/Swish_10/fq_output_0" type="FakeQuantize" version="opset1">
			<data levels="256" auto_broadcast="numpy" />
			<input>
				<port id="0" precision="FP32">
					<dim>1</dim>
					<dim>128</dim>
					<dim>40</dim>
					<dim>40</dim>
				</port>
				<port id="1" precision="FP32" />
				<port id="2" precision="FP32" />
				<port id="3" precision="FP32" />
				<port id="4" precision="FP32" />
			</input>
			<output>
				<port id="5" precision="FP32">
					<dim>1</dim>
					<dim>128</dim>
					<dim>40</dim>
					<dim>40</dim>
				</port>
			</output>
		</layer>
		<layer id="170" name="Constant_582248" type="Const" version="opset1">
			<data element_type="i8" shape="128, 128, 3, 3" offset="94608" size="147456" />
			<output>
				<port id="0" precision="I8">
					<dim>128</dim>
					<dim>128</dim>
					<dim>3</dim>
					<dim>3</dim>
				</port>
			</output>
		</layer>
		<layer id="171" name="Convert_582249" type="Convert" version="opset1">
			<data destination_type="f32" />
			<input>
				<port id="0" precision="I8">
					<dim>128</dim>
					<dim>128</dim>
					<dim>3</dim>
					<dim>3</dim>
				</port>
			</input>
			<output>
				<port id="1" precision="FP32">
					<dim>128</dim>
					<dim>128</dim>
					<dim>3</dim>
					<dim>3</dim>
				</port>
			</output>
		</layer>
		<layer id="172" name="Constant_582250" type="Const" version="opset1">
			<data element_type="f32" shape="128, 1, 1, 1" offset="242064" size="512" />
			<output>
				<port id="0" precision="FP32">
					<dim>128</dim>
					<dim>1</dim>
					<dim>1</dim>
					<dim>1</dim>
				</port>
			</output>
		</layer>
		<layer id="173" name="__module.model.5.conv/aten::_convolution/Convolution/fq_weights_1" type="Multiply" version="opset1">
			<data auto_broadcast="numpy" />
			<input>
				<port id="0" precision="FP32">
					<dim>128</dim>
					<dim>128</dim>
					<dim>3</dim>
					<dim>3</dim>
				</port>
				<port id="1" precision="FP32">
					<dim>128</dim>
					<dim>1</dim>
					<dim>1</dim>
					<dim>1</dim>
				</port>
			</input>
			<output>
				<port id="2" precision="FP32">
					<dim>128</dim>
					<dim>128</dim>
					<dim>3</dim>
					<dim>3</dim>
				</port>
			</output>
		</layer>
		<layer id="174" name="__module.model.5.conv/aten::_convolution/Convolution" type="Convolution" version="opset1">
			<data strides="2, 2" dilations="1, 1" pads_begin="1, 1" pads_end="1, 1" auto_pad="explicit" />
			<input>
				<port id="0" precision="FP32">
					<dim>1</dim>
					<dim>128</dim>
					<dim>40</dim>
					<dim>40</dim>
				</port>
				<port id="1" precision="FP32">
					<dim>128</dim>
					<dim>128</dim>
					<dim>3</dim>
					<dim>3</dim>
				</port>
			</input>
			<output>
				<port id="2" precision="FP32">
					<dim>1</dim>
					<dim>128</dim>
					<dim>20</dim>
					<dim>20</dim>
				</port>
			</output>
		</layer>
		<layer id="175" name="__module.model.5.conv/aten::_convolution/Reshape" type="Const" version="opset1">
			<data element_type="f32" shape="1, 128, 1, 1" offset="242576" size="512" />
			<output>
				<port id="0" precision="FP32">
					<dim>1</dim>
					<dim>128</dim>
					<dim>1</dim>
					<dim>1</dim>
				</port>
			</output>
		</layer>
		<layer id="176" name="__module.model.5.conv/aten::_convolution/Add" type="Add" version="opset1">
			<data auto_broadcast="numpy" />
			<input>
				<port id="0" precision="FP32">
					<dim>1</dim>
					<dim>128</dim>
					<dim>20</dim>
					<dim>20</dim>
				</port>
				<port id="1" precision="FP32">
					<dim>1</dim>
					<dim>128</dim>
					<dim>1</dim>
					<dim>1</dim>
				</port>
			</input>
			<output>
				<port id="2" precision="FP32" names="237_1">
					<dim>1</dim>
					<dim>128</dim>
					<dim>20</dim>
					<dim>20</dim>
				</port>
			</output>
		</layer>
		<layer id="177" name="__module.model.21.cv3.2.1.1.act/aten::silu_/Swish_11" type="Swish" version="opset4">
			<input>
				<port id="0" precision="FP32">
					<dim>1</dim>
					<dim>128</dim>
					<dim>20</dim>
					<dim>20</dim>
				</port>
			</input>
			<output>
				<port id="1" precision="FP32" names="237,input.45">
					<dim>1</dim>
					<dim>128</dim>
					<dim>20</dim>
					<dim>20</dim>
				</port>
			</output>
		</layer>
		<layer id="178" name="__module.model.21.cv3.2.1.1.act/aten::silu_/Swish_11/fq_output_0/input_low" type="Const" version="opset1">
			<data element_type="f32" shape="" offset="243088" size="4" />
			<output>
				<port id="0" precision="FP32" />
			</output>
		</layer>
		<layer id="179" name="__module.model.21.cv3.2.1.1.act/aten::silu_/Swish_11/fq_output_0/input_high" type="Const" version="opset1">
			<data element_type="f32" shape="" offset="243092" size="4" />
			<output>
				<port id="0" precision="FP32" />
			</output>
		</layer>
		<layer id="180" name="__module.model.21.cv3.2.1.1.act/aten::silu_/Swish_11/fq_output_0/output_low" type="Const" version="opset1">
			<data element_type="f32" shape="" offset="243088" size="4" />
			<output>
				<port id="0" precision="FP32" />
			</output>
		</layer>
		<layer id="181" name="__module.model.21.cv3.2.1.1.act/aten::silu_/Swish_11/fq_output_0/output_high" type="Const" version="opset1">
			<data element_type="f32" shape="" offset="243092" size="4" />
			<output>
				<port id="0" precision="FP32" />
			</output>
		</layer>
		<layer id="182" name="__module.model.21.cv3.2.1.1.act/aten::silu_/Swish_11/fq_output_0" type="FakeQuantize" version="opset1">
			<data levels="256" auto_broadcast="numpy" />
			<input>
				<port id="0" precision="FP32">
					<dim>1</dim>
					<dim>128</dim>
					<dim>20</dim>
					<dim>20</dim>
				</port>
				<port id="1" precision="FP32" />
				<port id="2" precision="FP32" />
				<port id="3" precision="FP32" />
				<port id="4" precision="FP32" />
			</input>
			<output>
				<port id="5" precision="FP32">
					<dim>1</dim>
					<dim>128</dim>
					<dim>20</dim>
					<dim>20</dim>
				</port>
			</output>
		</layer>
		<layer id="183" name="Constant_582252" type="Const" version="opset1">
			<data element_type="i8" shape="64, 128, 1, 1" offset="243096" size="8192" />
			<output>
				<port id="0" precision="I8">
					<dim>64</dim>
					<dim>128</dim>
					<dim>1</dim>
					<dim>1</dim>
				</port>
			</output>
		</layer>
		<layer id="184" name="Convert_582253" type="Convert" version="opset1">
			<data destination_type="f32" />
			<input>
				<port id="0" precision="I8">
					<dim>64</dim>
					<dim>128</dim>
					<dim>1</dim>
					<dim>1</dim>
				</port>
			</input>
			<output>
				<port id="1" precision="FP32">
					<dim>64</dim>
					<dim>128</dim>
					<dim>1</dim>
					<dim>1</dim>
				</port>
			</output>
		</layer>
		<layer id="185" name="Constant_582254" type="Const" version="opset1">
			<data element_type="f32" shape="64, 1, 1, 1" offset="251288" size="256" />
			<output>
				<port id="0" precision="FP32">
					<dim>64</dim>
					<dim>1</dim>
					<dim>1</dim>
					<dim>1</dim>
				</port>
			</output>
		</layer>
		<layer id="186" name="__module.model.6.cv1.conv/aten::_convolution/Convolution/fq_weights_1" type="Multiply" version="opset1">
			<data auto_broadcast="numpy" />
			<input>
				<port id="0" precision="FP32">
					<dim>64</dim>
					<dim>128</dim>
					<dim>1</dim>
					<dim>1</dim>
				</port>
				<port id="1" precision="FP32">
					<dim>64</dim>
					<dim>1</dim>
					<dim>1</dim>
					<dim>1</dim>
				</port>
			</input>
			<output>
				<port id="2" precision="FP32">
					<dim>64</dim>
					<dim>128</dim>
					<dim>1</dim>
					<dim>1</dim>
				</port>
			</output>
		</layer>
		<layer id="187" name="__module.model.6.cv1.conv/aten::_convolution/Convolution" type="Convolution" version="opset1">
			<data strides="1, 1" dilations="1, 1" pads_begin="0, 0" pads_end="0, 0" auto_pad="explicit" />
			<input>
				<port id="0" precision="FP32">
					<dim>1</dim>
					<dim>128</dim>
					<dim>20</dim>
					<dim>20</dim>
				</port>
				<port id="1" precision="FP32">
					<dim>64</dim>
					<dim>128</dim>
					<dim>1</dim>
					<dim>1</dim>
				</port>
			</input>
			<output>
				<port id="2" precision="FP32">
					<dim>1</dim>
					<dim>64</dim>
					<dim>20</dim>
					<dim>20</dim>
				</port>
			</output>
		</layer>
		<layer id="188" name="__module.model.6.cv1.conv/aten::_convolution/Reshape" type="Const" version="opset1">
			<data element_type="f32" shape="1, 64, 1, 1" offset="251544" size="256" />
			<output>
				<port id="0" precision="FP32">
					<dim>1</dim>
					<dim>64</dim>
					<dim>1</dim>
					<dim>1</dim>
				</port>
			</output>
		</layer>
		<layer id="189" name="__module.model.6.cv1.conv/aten::_convolution/Add" type="Add" version="opset1">
			<data auto_broadcast="numpy" />
			<input>
				<port id="0" precision="FP32">
					<dim>1</dim>
					<dim>64</dim>
					<dim>20</dim>
					<dim>20</dim>
				</port>
				<port id="1" precision="FP32">
					<dim>1</dim>
					<dim>64</dim>
					<dim>1</dim>
					<dim>1</dim>
				</port>
			</input>
			<output>
				<port id="2" precision="FP32" names="267_1">
					<dim>1</dim>
					<dim>64</dim>
					<dim>20</dim>
					<dim>20</dim>
				</port>
			</output>
		</layer>
		<layer id="190" name="__module.model.21.cv3.2.1.1.act/aten::silu_/Swish_12" type="Swish" version="opset4">
			<input>
				<port id="0" precision="FP32">
					<dim>1</dim>
					<dim>64</dim>
					<dim>20</dim>
					<dim>20</dim>
				</port>
			</input>
			<output>
				<port id="1" precision="FP32" names="267,input.49">
					<dim>1</dim>
					<dim>64</dim>
					<dim>20</dim>
					<dim>20</dim>
				</port>
			</output>
		</layer>
		<layer id="191" name="__module.model.21.cv3.2.1.1.act/aten::silu_/Swish_12/fq_output_0/input_low" type="Const" version="opset1">
			<data element_type="f32" shape="" offset="251800" size="4" />
			<output>
				<port id="0" precision="FP32" />
			</output>
		</layer>
		<layer id="192" name="__module.model.21.cv3.2.1.1.act/aten::silu_/Swish_12/fq_output_0/input_high" type="Const" version="opset1">
			<data element_type="f32" shape="" offset="251804" size="4" />
			<output>
				<port id="0" precision="FP32" />
			</output>
		</layer>
		<layer id="193" name="__module.model.21.cv3.2.1.1.act/aten::silu_/Swish_12/fq_output_0/output_low" type="Const" version="opset1">
			<data element_type="f32" shape="" offset="251800" size="4" />
			<output>
				<port id="0" precision="FP32" />
			</output>
		</layer>
		<layer id="194" name="__module.model.21.cv3.2.1.1.act/aten::silu_/Swish_12/fq_output_0/output_high" type="Const" version="opset1">
			<data element_type="f32" shape="" offset="251804" size="4" />
			<output>
				<port id="0" precision="FP32" />
			</output>
		</layer>
		<layer id="195" name="__module.model.21.cv3.2.1.1.act/aten::silu_/Swish_12/fq_output_0" type="FakeQuantize" version="opset1">
			<data levels="256" auto_broadcast="numpy" />
			<input>
				<port id="0" precision="FP32">
					<dim>1</dim>
					<dim>64</dim>
					<dim>20</dim>
					<dim>20</dim>
				</port>
				<port id="1" precision="FP32" />
				<port id="2" precision="FP32" />
				<port id="3" precision="FP32" />
				<port id="4" precision="FP32" />
			</input>
			<output>
				<port id="5" precision="FP32">
					<dim>1</dim>
					<dim>64</dim>
					<dim>20</dim>
					<dim>20</dim>
				</port>
			</output>
		</layer>
		<layer id="196" name="Constant_582256" type="Const" version="opset1">
			<data element_type="i8" shape="192, 64, 1, 1" offset="251808" size="12288" />
			<output>
				<port id="0" precision="I8">
					<dim>192</dim>
					<dim>64</dim>
					<dim>1</dim>
					<dim>1</dim>
				</port>
			</output>
		</layer>
		<layer id="197" name="Convert_582257" type="Convert" version="opset1">
			<data destination_type="f32" />
			<input>
				<port id="0" precision="I8">
					<dim>192</dim>
					<dim>64</dim>
					<dim>1</dim>
					<dim>1</dim>
				</port>
			</input>
			<output>
				<port id="1" precision="FP32">
					<dim>192</dim>
					<dim>64</dim>
					<dim>1</dim>
					<dim>1</dim>
				</port>
			</output>
		</layer>
		<layer id="198" name="Constant_582258" type="Const" version="opset1">
			<data element_type="f32" shape="192, 1, 1, 1" offset="264096" size="768" />
			<output>
				<port id="0" precision="FP32">
					<dim>192</dim>
					<dim>1</dim>
					<dim>1</dim>
					<dim>1</dim>
				</port>
			</output>
		</layer>
		<layer id="199" name="__module.model.6.m.0.0.attn.qkv.conv/aten::_convolution/Convolution/fq_weights_1" type="Multiply" version="opset1">
			<data auto_broadcast="numpy" />
			<input>
				<port id="0" precision="FP32">
					<dim>192</dim>
					<dim>64</dim>
					<dim>1</dim>
					<dim>1</dim>
				</port>
				<port id="1" precision="FP32">
					<dim>192</dim>
					<dim>1</dim>
					<dim>1</dim>
					<dim>1</dim>
				</port>
			</input>
			<output>
				<port id="2" precision="FP32">
					<dim>192</dim>
					<dim>64</dim>
					<dim>1</dim>
					<dim>1</dim>
				</port>
			</output>
		</layer>
		<layer id="200" name="__module.model.6.m.0.0.attn.qkv.conv/aten::_convolution/Convolution" type="Convolution" version="opset1">
			<data strides="1, 1" dilations="1, 1" pads_begin="0, 0" pads_end="0, 0" auto_pad="explicit" />
			<input>
				<port id="0" precision="FP32">
					<dim>1</dim>
					<dim>64</dim>
					<dim>20</dim>
					<dim>20</dim>
				</port>
				<port id="1" precision="FP32">
					<dim>192</dim>
					<dim>64</dim>
					<dim>1</dim>
					<dim>1</dim>
				</port>
			</input>
			<output>
				<port id="2" precision="FP32">
					<dim>1</dim>
					<dim>192</dim>
					<dim>20</dim>
					<dim>20</dim>
				</port>
			</output>
		</layer>
		<layer id="201" name="__module.model.6.m.0.0.attn.qkv.conv/aten::_convolution/Reshape" type="Const" version="opset1">
			<data element_type="f32" shape="1, 192, 1, 1" offset="264864" size="768" />
			<output>
				<port id="0" precision="FP32">
					<dim>1</dim>
					<dim>192</dim>
					<dim>1</dim>
					<dim>1</dim>
				</port>
			</output>
		</layer>
		<layer id="202" name="__module.model.6.m.0.0.attn.qkv.conv/aten::_convolution/Add" type="Add" version="opset1">
			<data auto_broadcast="numpy" />
			<input>
				<port id="0" precision="FP32">
					<dim>1</dim>
					<dim>192</dim>
					<dim>20</dim>
					<dim>20</dim>
				</port>
				<port id="1" precision="FP32">
					<dim>1</dim>
					<dim>192</dim>
					<dim>1</dim>
					<dim>1</dim>
				</port>
			</input>
			<output>
				<port id="2" precision="FP32" names="292">
					<dim>1</dim>
					<dim>192</dim>
					<dim>20</dim>
					<dim>20</dim>
				</port>
			</output>
		</layer>
		<layer id="203" name="__module.model.6.m.0.0.attn.qkv.conv/aten::_convolution/Add/fq_output_0/input_low" type="Const" version="opset1">
			<data element_type="f32" shape="" offset="265632" size="4" />
			<output>
				<port id="0" precision="FP32" />
			</output>
		</layer>
		<layer id="204" name="__module.model.6.m.0.0.attn.qkv.conv/aten::_convolution/Add/fq_output_0/input_high" type="Const" version="opset1">
			<data element_type="f32" shape="" offset="265636" size="4" />
			<output>
				<port id="0" precision="FP32" />
			</output>
		</layer>
		<layer id="205" name="__module.model.6.m.0.0.attn.qkv.conv/aten::_convolution/Add/fq_output_0/output_low" type="Const" version="opset1">
			<data element_type="f32" shape="" offset="265632" size="4" />
			<output>
				<port id="0" precision="FP32" />
			</output>
		</layer>
		<layer id="206" name="__module.model.6.m.0.0.attn.qkv.conv/aten::_convolution/Add/fq_output_0/output_high" type="Const" version="opset1">
			<data element_type="f32" shape="" offset="265636" size="4" />
			<output>
				<port id="0" precision="FP32" />
			</output>
		</layer>
		<layer id="207" name="__module.model.6.m.0.0.attn.qkv.conv/aten::_convolution/Add/fq_output_0" type="FakeQuantize" version="opset1">
			<data levels="256" auto_broadcast="numpy" />
			<input>
				<port id="0" precision="FP32">
					<dim>1</dim>
					<dim>192</dim>
					<dim>20</dim>
					<dim>20</dim>
				</port>
				<port id="1" precision="FP32" />
				<port id="2" precision="FP32" />
				<port id="3" precision="FP32" />
				<port id="4" precision="FP32" />
			</input>
			<output>
				<port id="5" precision="FP32">
					<dim>1</dim>
					<dim>192</dim>
					<dim>20</dim>
					<dim>20</dim>
				</port>
			</output>
		</layer>
		<layer id="208" name="Constant_20924" type="Const" version="opset1">
			<data element_type="i64" shape="3" offset="265640" size="24" />
			<output>
				<port id="0" precision="I64">
					<dim>3</dim>
				</port>
			</output>
		</layer>
		<layer id="209" name="__module.model.6.m.0.0.attn/aten::flatten/Reshape" type="Reshape" version="opset1">
			<data special_zero="true" />
			<input>
				<port id="0" precision="FP32">
					<dim>1</dim>
					<dim>192</dim>
					<dim>20</dim>
					<dim>20</dim>
				</port>
				<port id="1" precision="I64">
					<dim>3</dim>
				</port>
			</input>
			<output>
				<port id="2" precision="FP32" names="293">
					<dim>1</dim>
					<dim>192</dim>
					<dim>400</dim>
				</port>
			</output>
		</layer>
		<layer id="210" name="__module.model.6.m.0.0.attn/aten::transpose/Constant" type="Const" version="opset1">
			<data element_type="i32" shape="3" offset="265664" size="12" />
			<output>
				<port id="0" precision="I32">
					<dim>3</dim>
				</port>
			</output>
		</layer>
		<layer id="211" name="__module.model.6.m.0.0.attn/aten::transpose/Transpose" type="Transpose" version="opset1">
			<input>
				<port id="0" precision="FP32">
					<dim>1</dim>
					<dim>192</dim>
					<dim>400</dim>
				</port>
				<port id="1" precision="I32">
					<dim>3</dim>
				</port>
			</input>
			<output>
				<port id="2" precision="FP32" names="294,qkv.1">
					<dim>1</dim>
					<dim>400</dim>
					<dim>192</dim>
				</port>
			</output>
		</layer>
		<layer id="212" name="Constant_984" type="Const" version="opset1">
			<data element_type="i64" shape="4" offset="265676" size="32" />
			<output>
				<port id="0" precision="I64">
					<dim>4</dim>
				</port>
			</output>
		</layer>
		<layer id="213" name="__module.model.6.m.0.0.attn/aten::view/Reshape" type="Reshape" version="opset1">
			<data special_zero="false" />
			<input>
				<port id="0" precision="FP32">
					<dim>1</dim>
					<dim>400</dim>
					<dim>192</dim>
				</port>
				<port id="1" precision="I64">
					<dim>4</dim>
				</port>
			</input>
			<output>
				<port id="2" precision="FP32" names="308">
					<dim>4</dim>
					<dim>100</dim>
					<dim>2</dim>
					<dim>96</dim>
				</port>
			</output>
		</layer>
		<layer id="214" name="Constant_992" type="Const" version="opset1">
			<data element_type="i64" shape="4" offset="265708" size="32" />
			<output>
				<port id="0" precision="I64" names="309">
					<dim>4</dim>
				</port>
			</output>
		</layer>
		<layer id="215" name="__module.model.6.m.0.0.attn/aten::permute/Transpose" type="Transpose" version="opset1">
			<input>
				<port id="0" precision="FP32">
					<dim>4</dim>
					<dim>100</dim>
					<dim>2</dim>
					<dim>96</dim>
				</port>
				<port id="1" precision="I64">
					<dim>4</dim>
				</port>
			</input>
			<output>
				<port id="2" precision="FP32" names="310">
					<dim>4</dim>
					<dim>2</dim>
					<dim>96</dim>
					<dim>100</dim>
				</port>
			</output>
		</layer>
		<layer id="216" name="239" type="Const" version="opset1">
			<data element_type="i64" shape="" offset="265740" size="8" />
			<output>
				<port id="0" precision="I64" names="239" />
			</output>
		</layer>
		<layer id="217" name="Constant_1002" type="Const" version="opset1">
			<data element_type="i64" shape="3" offset="265748" size="24" />
			<output>
				<port id="0" precision="I64" names="311">
					<dim>3</dim>
				</port>
			</output>
		</layer>
		<layer id="218" name="__module.model.6.m.0.0.attn/aten::split_with_sizes/VariadicSplit" type="VariadicSplit" version="opset1">
			<input>
				<port id="0" precision="FP32">
					<dim>4</dim>
					<dim>2</dim>
					<dim>96</dim>
					<dim>100</dim>
				</port>
				<port id="1" precision="I64" />
				<port id="2" precision="I64">
					<dim>3</dim>
				</port>
			</input>
			<output>
				<port id="3" precision="FP32" names="313,q.1">
					<dim>4</dim>
					<dim>2</dim>
					<dim>32</dim>
					<dim>100</dim>
				</port>
				<port id="4" precision="FP32" names="314,k.1">
					<dim>4</dim>
					<dim>2</dim>
					<dim>32</dim>
					<dim>100</dim>
				</port>
				<port id="5" precision="FP32" names="315,v.1">
					<dim>4</dim>
					<dim>2</dim>
					<dim>32</dim>
					<dim>100</dim>
				</port>
			</output>
		</layer>
		<layer id="219" name="__module.model.6.m.0.0.attn/aten::matmul/MatMul" type="MatMul" version="opset1">
			<data transpose_a="true" transpose_b="false" />
			<input>
				<port id="0" precision="FP32">
					<dim>4</dim>
					<dim>2</dim>
					<dim>32</dim>
					<dim>100</dim>
				</port>
				<port id="1" precision="FP32">
					<dim>4</dim>
					<dim>2</dim>
					<dim>32</dim>
					<dim>100</dim>
				</port>
			</input>
			<output>
				<port id="2" precision="FP32" names="317">
					<dim>4</dim>
					<dim>2</dim>
					<dim>100</dim>
					<dim>100</dim>
				</port>
			</output>
		</layer>
		<layer id="220" name="Constant_20716" type="Const" version="opset1">
			<data element_type="f32" shape="1, 1, 1, 1" offset="265772" size="4" />
			<output>
				<port id="0" precision="FP32">
					<dim>1</dim>
					<dim>1</dim>
					<dim>1</dim>
					<dim>1</dim>
				</port>
			</output>
		</layer>
		<layer id="221" name="__module.model.6.m.0.0.attn/aten::mul/Multiply" type="Multiply" version="opset1">
			<data auto_broadcast="numpy" />
			<input>
				<port id="0" precision="FP32">
					<dim>4</dim>
					<dim>2</dim>
					<dim>100</dim>
					<dim>100</dim>
				</port>
				<port id="1" precision="FP32">
					<dim>1</dim>
					<dim>1</dim>
					<dim>1</dim>
					<dim>1</dim>
				</port>
			</input>
			<output>
				<port id="2" precision="FP32" names="318,attn.1">
					<dim>4</dim>
					<dim>2</dim>
					<dim>100</dim>
					<dim>100</dim>
				</port>
			</output>
		</layer>
		<layer id="222" name="__module.model.6.m.0.0.attn/aten::softmax/Softmax" type="SoftMax" version="opset8">
			<data axis="-1" />
			<input>
				<port id="0" precision="FP32">
					<dim>4</dim>
					<dim>2</dim>
					<dim>100</dim>
					<dim>100</dim>
				</port>
			</input>
			<output>
				<port id="1" precision="FP32" names="319,attn.3">
					<dim>4</dim>
					<dim>2</dim>
					<dim>100</dim>
					<dim>100</dim>
				</port>
			</output>
		</layer>
		<layer id="223" name="__module.model.6.m.0.0.attn/aten::softmax/Softmax/fq_output_0/input_low" type="Const" version="opset1">
			<data element_type="f32" shape="" offset="16800" size="4" />
			<output>
				<port id="0" precision="FP32" />
			</output>
		</layer>
		<layer id="224" name="__module.model.6.m.0.0.attn/aten::softmax/Softmax/fq_output_0/input_high" type="Const" version="opset1">
			<data element_type="f32" shape="" offset="265776" size="4" />
			<output>
				<port id="0" precision="FP32" />
			</output>
		</layer>
		<layer id="225" name="__module.model.6.m.0.0.attn/aten::softmax/Softmax/fq_output_0/output_low" type="Const" version="opset1">
			<data element_type="f32" shape="" offset="16800" size="4" />
			<output>
				<port id="0" precision="FP32" />
			</output>
		</layer>
		<layer id="226" name="__module.model.6.m.0.0.attn/aten::softmax/Softmax/fq_output_0/output_high" type="Const" version="opset1">
			<data element_type="f32" shape="" offset="265776" size="4" />
			<output>
				<port id="0" precision="FP32" />
			</output>
		</layer>
		<layer id="227" name="__module.model.6.m.0.0.attn/aten::softmax/Softmax/fq_output_0" type="FakeQuantize" version="opset1">
			<data levels="256" auto_broadcast="numpy" />
			<input>
				<port id="0" precision="FP32">
					<dim>4</dim>
					<dim>2</dim>
					<dim>100</dim>
					<dim>100</dim>
				</port>
				<port id="1" precision="FP32" />
				<port id="2" precision="FP32" />
				<port id="3" precision="FP32" />
				<port id="4" precision="FP32" />
			</input>
			<output>
				<port id="5" precision="FP32">
					<dim>4</dim>
					<dim>2</dim>
					<dim>100</dim>
					<dim>100</dim>
				</port>
			</output>
		</layer>
		<layer id="228" name="__module.model.6.m.0.0.attn/aten::matmul/MatMul_1" type="MatMul" version="opset1">
			<data transpose_a="false" transpose_b="true" />
			<input>
				<port id="0" precision="FP32">
					<dim>4</dim>
					<dim>2</dim>
					<dim>32</dim>
					<dim>100</dim>
				</port>
				<port id="1" precision="FP32">
					<dim>4</dim>
					<dim>2</dim>
					<dim>100</dim>
					<dim>100</dim>
				</port>
			</input>
			<output>
				<port id="2" precision="FP32" names="321,x.5">
					<dim>4</dim>
					<dim>2</dim>
					<dim>32</dim>
					<dim>100</dim>
				</port>
			</output>
		</layer>
		<layer id="229" name="__module.model.6.m.0.0.attn/aten::matmul/MatMul_1/fq_output_0/input_low" type="Const" version="opset1">
			<data element_type="f32" shape="" offset="265780" size="4" />
			<output>
				<port id="0" precision="FP32" />
			</output>
		</layer>
		<layer id="230" name="__module.model.6.m.0.0.attn/aten::matmul/MatMul_1/fq_output_0/input_high" type="Const" version="opset1">
			<data element_type="f32" shape="" offset="265784" size="4" />
			<output>
				<port id="0" precision="FP32" />
			</output>
		</layer>
		<layer id="231" name="__module.model.6.m.0.0.attn/aten::matmul/MatMul_1/fq_output_0/output_low" type="Const" version="opset1">
			<data element_type="f32" shape="" offset="265780" size="4" />
			<output>
				<port id="0" precision="FP32" />
			</output>
		</layer>
		<layer id="232" name="__module.model.6.m.0.0.attn/aten::matmul/MatMul_1/fq_output_0/output_high" type="Const" version="opset1">
			<data element_type="f32" shape="" offset="265784" size="4" />
			<output>
				<port id="0" precision="FP32" />
			</output>
		</layer>
		<layer id="233" name="__module.model.6.m.0.0.attn/aten::matmul/MatMul_1/fq_output_0" type="FakeQuantize" version="opset1">
			<data levels="256" auto_broadcast="numpy" />
			<input>
				<port id="0" precision="FP32">
					<dim>4</dim>
					<dim>2</dim>
					<dim>32</dim>
					<dim>100</dim>
				</port>
				<port id="1" precision="FP32" />
				<port id="2" precision="FP32" />
				<port id="3" precision="FP32" />
				<port id="4" precision="FP32" />
			</input>
			<output>
				<port id="5" precision="FP32">
					<dim>4</dim>
					<dim>2</dim>
					<dim>32</dim>
					<dim>100</dim>
				</port>
			</output>
		</layer>
		<layer id="234" name="Constant_1166" type="Const" version="opset1">
			<data element_type="i64" shape="4" offset="265788" size="32" />
			<output>
				<port id="0" precision="I64" names="322">
					<dim>4</dim>
				</port>
			</output>
		</layer>
		<layer id="235" name="__module.model.6.m.0.0.attn/aten::permute/Transpose_1" type="Transpose" version="opset1">
			<input>
				<port id="0" precision="FP32">
					<dim>4</dim>
					<dim>2</dim>
					<dim>32</dim>
					<dim>100</dim>
				</port>
				<port id="1" precision="I64">
					<dim>4</dim>
				</port>
			</input>
			<output>
				<port id="2" precision="FP32" names="323,x.7">
					<dim>4</dim>
					<dim>100</dim>
					<dim>2</dim>
					<dim>32</dim>
				</port>
			</output>
		</layer>
		<layer id="236" name="Constant_1335" type="Const" version="opset1">
			<data element_type="i64" shape="4" offset="265820" size="32" />
			<output>
				<port id="0" precision="I64">
					<dim>4</dim>
				</port>
			</output>
		</layer>
		<layer id="237" name="__module.model.6.m.0.0.attn/aten::reshape/Reshape_2" type="Reshape" version="opset1">
			<data special_zero="false" />
			<input>
				<port id="0" precision="FP32">
					<dim>4</dim>
					<dim>100</dim>
					<dim>2</dim>
					<dim>32</dim>
				</port>
				<port id="1" precision="I64">
					<dim>4</dim>
				</port>
			</input>
			<output>
				<port id="2" precision="FP32" names="340">
					<dim>1</dim>
					<dim>20</dim>
					<dim>20</dim>
					<dim>64</dim>
				</port>
			</output>
		</layer>
		<layer id="238" name="Constant_1343" type="Const" version="opset1">
			<data element_type="i64" shape="4" offset="265788" size="32" />
			<output>
				<port id="0" precision="I64" names="341">
					<dim>4</dim>
				</port>
			</output>
		</layer>
		<layer id="239" name="__module.model.6.m.0.0.attn/aten::permute/Transpose_2" type="Transpose" version="opset1">
			<input>
				<port id="0" precision="FP32">
					<dim>1</dim>
					<dim>20</dim>
					<dim>20</dim>
					<dim>64</dim>
				</port>
				<port id="1" precision="I64">
					<dim>4</dim>
				</port>
			</input>
			<output>
				<port id="2" precision="FP32" names="342">
					<dim>1</dim>
					<dim>64</dim>
					<dim>20</dim>
					<dim>20</dim>
				</port>
			</output>
		</layer>
		<layer id="240" name="Constant_1177" type="Const" version="opset1">
			<data element_type="i64" shape="4" offset="265788" size="32" />
			<output>
				<port id="0" precision="I64" names="324">
					<dim>4</dim>
				</port>
			</output>
		</layer>
		<layer id="241" name="__module.model.6.m.0.0.attn/aten::permute/Transpose_3" type="Transpose" version="opset1">
			<input>
				<port id="0" precision="FP32">
					<dim>4</dim>
					<dim>2</dim>
					<dim>32</dim>
					<dim>100</dim>
				</port>
				<port id="1" precision="I64">
					<dim>4</dim>
				</port>
			</input>
			<output>
				<port id="2" precision="FP32" names="325,v.3">
					<dim>4</dim>
					<dim>100</dim>
					<dim>2</dim>
					<dim>32</dim>
				</port>
			</output>
		</layer>
		<layer id="242" name="Constant_1360" type="Const" version="opset1">
			<data element_type="i64" shape="4" offset="265820" size="32" />
			<output>
				<port id="0" precision="I64">
					<dim>4</dim>
				</port>
			</output>
		</layer>
		<layer id="243" name="__module.model.6.m.0.0.attn/aten::reshape/Reshape_4" type="Reshape" version="opset1">
			<data special_zero="false" />
			<input>
				<port id="0" precision="FP32">
					<dim>4</dim>
					<dim>100</dim>
					<dim>2</dim>
					<dim>32</dim>
				</port>
				<port id="1" precision="I64">
					<dim>4</dim>
				</port>
			</input>
			<output>
				<port id="2" precision="FP32" names="345">
					<dim>1</dim>
					<dim>20</dim>
					<dim>20</dim>
					<dim>64</dim>
				</port>
			</output>
		</layer>
		<layer id="244" name="Constant_1368" type="Const" version="opset1">
			<data element_type="i64" shape="4" offset="265788" size="32" />
			<output>
				<port id="0" precision="I64" names="346">
					<dim>4</dim>
				</port>
			</output>
		</layer>
		<layer id="245" name="__module.model.6.m.0.0.attn/aten::permute/Transpose_4" type="Transpose" version="opset1">
			<input>
				<port id="0" precision="FP32">
					<dim>1</dim>
					<dim>20</dim>
					<dim>20</dim>
					<dim>64</dim>
				</port>
				<port id="1" precision="I64">
					<dim>4</dim>
				</port>
			</input>
			<output>
				<port id="2" precision="FP32" names="347">
					<dim>1</dim>
					<dim>64</dim>
					<dim>20</dim>
					<dim>20</dim>
				</port>
			</output>
		</layer>
		<layer id="246" name="Constant_582260" type="Const" version="opset1">
			<data element_type="i8" shape="64, 1, 1, 7, 7" offset="265852" size="3136" />
			<output>
				<port id="0" precision="I8">
					<dim>64</dim>
					<dim>1</dim>
					<dim>1</dim>
					<dim>7</dim>
					<dim>7</dim>
				</port>
			</output>
		</layer>
		<layer id="247" name="Convert_582261" type="Convert" version="opset1">
			<data destination_type="f32" />
			<input>
				<port id="0" precision="I8">
					<dim>64</dim>
					<dim>1</dim>
					<dim>1</dim>
					<dim>7</dim>
					<dim>7</dim>
				</port>
			</input>
			<output>
				<port id="1" precision="FP32">
					<dim>64</dim>
					<dim>1</dim>
					<dim>1</dim>
					<dim>7</dim>
					<dim>7</dim>
				</port>
			</output>
		</layer>
		<layer id="248" name="Constant_582262" type="Const" version="opset1">
			<data element_type="f32" shape="64, 1, 1, 1, 1" offset="268988" size="256" />
			<output>
				<port id="0" precision="FP32">
					<dim>64</dim>
					<dim>1</dim>
					<dim>1</dim>
					<dim>1</dim>
					<dim>1</dim>
				</port>
			</output>
		</layer>
		<layer id="249" name="__module.model.6.m.0.0.attn.pe.conv/aten::_convolution/GroupConvolution/fq_weights_1" type="Multiply" version="opset1">
			<data auto_broadcast="numpy" />
			<input>
				<port id="0" precision="FP32">
					<dim>64</dim>
					<dim>1</dim>
					<dim>1</dim>
					<dim>7</dim>
					<dim>7</dim>
				</port>
				<port id="1" precision="FP32">
					<dim>64</dim>
					<dim>1</dim>
					<dim>1</dim>
					<dim>1</dim>
					<dim>1</dim>
				</port>
			</input>
			<output>
				<port id="2" precision="FP32">
					<dim>64</dim>
					<dim>1</dim>
					<dim>1</dim>
					<dim>7</dim>
					<dim>7</dim>
				</port>
			</output>
		</layer>
		<layer id="250" name="__module.model.6.m.0.0.attn.pe.conv/aten::_convolution/GroupConvolution" type="GroupConvolution" version="opset1">
			<data strides="1, 1" pads_begin="3, 3" pads_end="3, 3" dilations="1, 1" auto_pad="explicit" />
			<input>
				<port id="0" precision="FP32">
					<dim>1</dim>
					<dim>64</dim>
					<dim>20</dim>
					<dim>20</dim>
				</port>
				<port id="1" precision="FP32">
					<dim>64</dim>
					<dim>1</dim>
					<dim>1</dim>
					<dim>7</dim>
					<dim>7</dim>
				</port>
			</input>
			<output>
				<port id="2" precision="FP32">
					<dim>1</dim>
					<dim>64</dim>
					<dim>20</dim>
					<dim>20</dim>
				</port>
			</output>
		</layer>
		<layer id="251" name="__module.model.6.m.0.0.attn.pe.conv/aten::_convolution/Reshape_1" type="Const" version="opset1">
			<data element_type="f32" shape="1, 64, 1, 1" offset="269244" size="256" />
			<output>
				<port id="0" precision="FP32">
					<dim>1</dim>
					<dim>64</dim>
					<dim>1</dim>
					<dim>1</dim>
				</port>
			</output>
		</layer>
		<layer id="252" name="__module.model.6.m.0.0.attn.pe.conv/aten::_convolution/Add" type="Add" version="opset1">
			<data auto_broadcast="numpy" />
			<input>
				<port id="0" precision="FP32">
					<dim>1</dim>
					<dim>64</dim>
					<dim>20</dim>
					<dim>20</dim>
				</port>
				<port id="1" precision="FP32">
					<dim>1</dim>
					<dim>64</dim>
					<dim>1</dim>
					<dim>1</dim>
				</port>
			</input>
			<output>
				<port id="2" precision="FP32" names="356">
					<dim>1</dim>
					<dim>64</dim>
					<dim>20</dim>
					<dim>20</dim>
				</port>
			</output>
		</layer>
		<layer id="253" name="__module.model.6.m.0.0.attn.pe.conv/aten::_convolution/Add/fq_output_0/input_low" type="Const" version="opset1">
			<data element_type="f32" shape="" offset="269500" size="4" />
			<output>
				<port id="0" precision="FP32" />
			</output>
		</layer>
		<layer id="254" name="__module.model.6.m.0.0.attn.pe.conv/aten::_convolution/Add/fq_output_0/input_high" type="Const" version="opset1">
			<data element_type="f32" shape="" offset="269504" size="4" />
			<output>
				<port id="0" precision="FP32" />
			</output>
		</layer>
		<layer id="255" name="__module.model.6.m.0.0.attn.pe.conv/aten::_convolution/Add/fq_output_0/output_low" type="Const" version="opset1">
			<data element_type="f32" shape="" offset="269500" size="4" />
			<output>
				<port id="0" precision="FP32" />
			</output>
		</layer>
		<layer id="256" name="__module.model.6.m.0.0.attn.pe.conv/aten::_convolution/Add/fq_output_0/output_high" type="Const" version="opset1">
			<data element_type="f32" shape="" offset="269504" size="4" />
			<output>
				<port id="0" precision="FP32" />
			</output>
		</layer>
		<layer id="257" name="__module.model.6.m.0.0.attn.pe.conv/aten::_convolution/Add/fq_output_0" type="FakeQuantize" version="opset1">
			<data levels="256" auto_broadcast="numpy" />
			<input>
				<port id="0" precision="FP32">
					<dim>1</dim>
					<dim>64</dim>
					<dim>20</dim>
					<dim>20</dim>
				</port>
				<port id="1" precision="FP32" />
				<port id="2" precision="FP32" />
				<port id="3" precision="FP32" />
				<port id="4" precision="FP32" />
			</input>
			<output>
				<port id="5" precision="FP32">
					<dim>1</dim>
					<dim>64</dim>
					<dim>20</dim>
					<dim>20</dim>
				</port>
			</output>
		</layer>
		<layer id="258" name="__module.model.6.m.0.0.attn/aten::add/Add" type="Add" version="opset1">
			<data auto_broadcast="numpy" />
			<input>
				<port id="0" precision="FP32">
					<dim>1</dim>
					<dim>64</dim>
					<dim>20</dim>
					<dim>20</dim>
				</port>
				<port id="1" precision="FP32">
					<dim>1</dim>
					<dim>64</dim>
					<dim>20</dim>
					<dim>20</dim>
				</port>
			</input>
			<output>
				<port id="2" precision="FP32" names="357,input.53">
					<dim>1</dim>
					<dim>64</dim>
					<dim>20</dim>
					<dim>20</dim>
				</port>
			</output>
		</layer>
		<layer id="259" name="__module.model.6.m.0.0.attn/aten::add/Add/fq_output_0/input_low" type="Const" version="opset1">
			<data element_type="f32" shape="" offset="269508" size="4" />
			<output>
				<port id="0" precision="FP32" />
			</output>
		</layer>
		<layer id="260" name="__module.model.6.m.0.0.attn/aten::add/Add/fq_output_0/input_high" type="Const" version="opset1">
			<data element_type="f32" shape="" offset="269512" size="4" />
			<output>
				<port id="0" precision="FP32" />
			</output>
		</layer>
		<layer id="261" name="__module.model.6.m.0.0.attn/aten::add/Add/fq_output_0/output_low" type="Const" version="opset1">
			<data element_type="f32" shape="" offset="269508" size="4" />
			<output>
				<port id="0" precision="FP32" />
			</output>
		</layer>
		<layer id="262" name="__module.model.6.m.0.0.attn/aten::add/Add/fq_output_0/output_high" type="Const" version="opset1">
			<data element_type="f32" shape="" offset="269512" size="4" />
			<output>
				<port id="0" precision="FP32" />
			</output>
		</layer>
		<layer id="263" name="__module.model.6.m.0.0.attn/aten::add/Add/fq_output_0" type="FakeQuantize" version="opset1">
			<data levels="256" auto_broadcast="numpy" />
			<input>
				<port id="0" precision="FP32">
					<dim>1</dim>
					<dim>64</dim>
					<dim>20</dim>
					<dim>20</dim>
				</port>
				<port id="1" precision="FP32" />
				<port id="2" precision="FP32" />
				<port id="3" precision="FP32" />
				<port id="4" precision="FP32" />
			</input>
			<output>
				<port id="5" precision="FP32">
					<dim>1</dim>
					<dim>64</dim>
					<dim>20</dim>
					<dim>20</dim>
				</port>
			</output>
		</layer>
		<layer id="264" name="Constant_582264" type="Const" version="opset1">
			<data element_type="i8" shape="64, 64, 1, 1" offset="269516" size="4096" />
			<output>
				<port id="0" precision="I8">
					<dim>64</dim>
					<dim>64</dim>
					<dim>1</dim>
					<dim>1</dim>
				</port>
			</output>
		</layer>
		<layer id="265" name="Convert_582265" type="Convert" version="opset1">
			<data destination_type="f32" />
			<input>
				<port id="0" precision="I8">
					<dim>64</dim>
					<dim>64</dim>
					<dim>1</dim>
					<dim>1</dim>
				</port>
			</input>
			<output>
				<port id="1" precision="FP32">
					<dim>64</dim>
					<dim>64</dim>
					<dim>1</dim>
					<dim>1</dim>
				</port>
			</output>
		</layer>
		<layer id="266" name="Constant_582266" type="Const" version="opset1">
			<data element_type="f32" shape="64, 1, 1, 1" offset="273612" size="256" />
			<output>
				<port id="0" precision="FP32">
					<dim>64</dim>
					<dim>1</dim>
					<dim>1</dim>
					<dim>1</dim>
				</port>
			</output>
		</layer>
		<layer id="267" name="__module.model.6.m.0.0.attn.proj.conv/aten::_convolution/Convolution/fq_weights_1" type="Multiply" version="opset1">
			<data auto_broadcast="numpy" />
			<input>
				<port id="0" precision="FP32">
					<dim>64</dim>
					<dim>64</dim>
					<dim>1</dim>
					<dim>1</dim>
				</port>
				<port id="1" precision="FP32">
					<dim>64</dim>
					<dim>1</dim>
					<dim>1</dim>
					<dim>1</dim>
				</port>
			</input>
			<output>
				<port id="2" precision="FP32">
					<dim>64</dim>
					<dim>64</dim>
					<dim>1</dim>
					<dim>1</dim>
				</port>
			</output>
		</layer>
		<layer id="268" name="__module.model.6.m.0.0.attn.proj.conv/aten::_convolution/Convolution" type="Convolution" version="opset1">
			<data strides="1, 1" dilations="1, 1" pads_begin="0, 0" pads_end="0, 0" auto_pad="explicit" />
			<input>
				<port id="0" precision="FP32">
					<dim>1</dim>
					<dim>64</dim>
					<dim>20</dim>
					<dim>20</dim>
				</port>
				<port id="1" precision="FP32">
					<dim>64</dim>
					<dim>64</dim>
					<dim>1</dim>
					<dim>1</dim>
				</port>
			</input>
			<output>
				<port id="2" precision="FP32">
					<dim>1</dim>
					<dim>64</dim>
					<dim>20</dim>
					<dim>20</dim>
				</port>
			</output>
		</layer>
		<layer id="269" name="__module.model.6.m.0.0.attn.proj.conv/aten::_convolution/Reshape" type="Const" version="opset1">
			<data element_type="f32" shape="1, 64, 1, 1" offset="273868" size="256" />
			<output>
				<port id="0" precision="FP32">
					<dim>1</dim>
					<dim>64</dim>
					<dim>1</dim>
					<dim>1</dim>
				</port>
			</output>
		</layer>
		<layer id="270" name="__module.model.6.m.0.0.attn.proj.conv/aten::_convolution/Add" type="Add" version="opset1">
			<data auto_broadcast="numpy" />
			<input>
				<port id="0" precision="FP32">
					<dim>1</dim>
					<dim>64</dim>
					<dim>20</dim>
					<dim>20</dim>
				</port>
				<port id="1" precision="FP32">
					<dim>1</dim>
					<dim>64</dim>
					<dim>1</dim>
					<dim>1</dim>
				</port>
			</input>
			<output>
				<port id="2" precision="FP32" names="365">
					<dim>1</dim>
					<dim>64</dim>
					<dim>20</dim>
					<dim>20</dim>
				</port>
			</output>
		</layer>
		<layer id="271" name="__module.model.6.m.0.0.attn.proj.conv/aten::_convolution/Add/fq_output_0/input_low" type="Const" version="opset1">
			<data element_type="f32" shape="" offset="274124" size="4" />
			<output>
				<port id="0" precision="FP32" />
			</output>
		</layer>
		<layer id="272" name="__module.model.6.m.0.0.attn.proj.conv/aten::_convolution/Add/fq_output_0/input_high" type="Const" version="opset1">
			<data element_type="f32" shape="" offset="274128" size="4" />
			<output>
				<port id="0" precision="FP32" />
			</output>
		</layer>
		<layer id="273" name="__module.model.6.m.0.0.attn.proj.conv/aten::_convolution/Add/fq_output_0/output_low" type="Const" version="opset1">
			<data element_type="f32" shape="" offset="274124" size="4" />
			<output>
				<port id="0" precision="FP32" />
			</output>
		</layer>
		<layer id="274" name="__module.model.6.m.0.0.attn.proj.conv/aten::_convolution/Add/fq_output_0/output_high" type="Const" version="opset1">
			<data element_type="f32" shape="" offset="274128" size="4" />
			<output>
				<port id="0" precision="FP32" />
			</output>
		</layer>
		<layer id="275" name="__module.model.6.m.0.0.attn.proj.conv/aten::_convolution/Add/fq_output_0" type="FakeQuantize" version="opset1">
			<data levels="256" auto_broadcast="numpy" />
			<input>
				<port id="0" precision="FP32">
					<dim>1</dim>
					<dim>64</dim>
					<dim>20</dim>
					<dim>20</dim>
				</port>
				<port id="1" precision="FP32" />
				<port id="2" precision="FP32" />
				<port id="3" precision="FP32" />
				<port id="4" precision="FP32" />
			</input>
			<output>
				<port id="5" precision="FP32">
					<dim>1</dim>
					<dim>64</dim>
					<dim>20</dim>
					<dim>20</dim>
				</port>
			</output>
		</layer>
		<layer id="276" name="__module.model.6.m.0.0/aten::add/Add" type="Add" version="opset1">
			<data auto_broadcast="numpy" />
			<input>
				<port id="0" precision="FP32">
					<dim>1</dim>
					<dim>64</dim>
					<dim>20</dim>
					<dim>20</dim>
				</port>
				<port id="1" precision="FP32">
					<dim>1</dim>
					<dim>64</dim>
					<dim>20</dim>
					<dim>20</dim>
				</port>
			</input>
			<output>
				<port id="2" precision="FP32" names="366,input.55">
					<dim>1</dim>
					<dim>64</dim>
					<dim>20</dim>
					<dim>20</dim>
				</port>
			</output>
		</layer>
		<layer id="277" name="__module.model.6.m.0.0/aten::add/Add/fq_output_0/input_low" type="Const" version="opset1">
			<data element_type="f32" shape="" offset="274132" size="4" />
			<output>
				<port id="0" precision="FP32" />
			</output>
		</layer>
		<layer id="278" name="__module.model.6.m.0.0/aten::add/Add/fq_output_0/input_high" type="Const" version="opset1">
			<data element_type="f32" shape="" offset="274136" size="4" />
			<output>
				<port id="0" precision="FP32" />
			</output>
		</layer>
		<layer id="279" name="__module.model.6.m.0.0/aten::add/Add/fq_output_0/output_low" type="Const" version="opset1">
			<data element_type="f32" shape="" offset="274132" size="4" />
			<output>
				<port id="0" precision="FP32" />
			</output>
		</layer>
		<layer id="280" name="__module.model.6.m.0.0/aten::add/Add/fq_output_0/output_high" type="Const" version="opset1">
			<data element_type="f32" shape="" offset="274136" size="4" />
			<output>
				<port id="0" precision="FP32" />
			</output>
		</layer>
		<layer id="281" name="__module.model.6.m.0.0/aten::add/Add/fq_output_0" type="FakeQuantize" version="opset1">
			<data levels="256" auto_broadcast="numpy" />
			<input>
				<port id="0" precision="FP32">
					<dim>1</dim>
					<dim>64</dim>
					<dim>20</dim>
					<dim>20</dim>
				</port>
				<port id="1" precision="FP32" />
				<port id="2" precision="FP32" />
				<port id="3" precision="FP32" />
				<port id="4" precision="FP32" />
			</input>
			<output>
				<port id="5" precision="FP32">
					<dim>1</dim>
					<dim>64</dim>
					<dim>20</dim>
					<dim>20</dim>
				</port>
			</output>
		</layer>
		<layer id="282" name="Constant_582268" type="Const" version="opset1">
			<data element_type="i8" shape="128, 64, 1, 1" offset="274140" size="8192" />
			<output>
				<port id="0" precision="I8">
					<dim>128</dim>
					<dim>64</dim>
					<dim>1</dim>
					<dim>1</dim>
				</port>
			</output>
		</layer>
		<layer id="283" name="Convert_582269" type="Convert" version="opset1">
			<data destination_type="f32" />
			<input>
				<port id="0" precision="I8">
					<dim>128</dim>
					<dim>64</dim>
					<dim>1</dim>
					<dim>1</dim>
				</port>
			</input>
			<output>
				<port id="1" precision="FP32">
					<dim>128</dim>
					<dim>64</dim>
					<dim>1</dim>
					<dim>1</dim>
				</port>
			</output>
		</layer>
		<layer id="284" name="Constant_582270" type="Const" version="opset1">
			<data element_type="f32" shape="128, 1, 1, 1" offset="282332" size="512" />
			<output>
				<port id="0" precision="FP32">
					<dim>128</dim>
					<dim>1</dim>
					<dim>1</dim>
					<dim>1</dim>
				</port>
			</output>
		</layer>
		<layer id="285" name="__module.model.6.m.0.0.mlp.0.conv/aten::_convolution/Convolution/fq_weights_1" type="Multiply" version="opset1">
			<data auto_broadcast="numpy" />
			<input>
				<port id="0" precision="FP32">
					<dim>128</dim>
					<dim>64</dim>
					<dim>1</dim>
					<dim>1</dim>
				</port>
				<port id="1" precision="FP32">
					<dim>128</dim>
					<dim>1</dim>
					<dim>1</dim>
					<dim>1</dim>
				</port>
			</input>
			<output>
				<port id="2" precision="FP32">
					<dim>128</dim>
					<dim>64</dim>
					<dim>1</dim>
					<dim>1</dim>
				</port>
			</output>
		</layer>
		<layer id="286" name="__module.model.6.m.0.0.mlp.0.conv/aten::_convolution/Convolution" type="Convolution" version="opset1">
			<data strides="1, 1" dilations="1, 1" pads_begin="0, 0" pads_end="0, 0" auto_pad="explicit" />
			<input>
				<port id="0" precision="FP32">
					<dim>1</dim>
					<dim>64</dim>
					<dim>20</dim>
					<dim>20</dim>
				</port>
				<port id="1" precision="FP32">
					<dim>128</dim>
					<dim>64</dim>
					<dim>1</dim>
					<dim>1</dim>
				</port>
			</input>
			<output>
				<port id="2" precision="FP32">
					<dim>1</dim>
					<dim>128</dim>
					<dim>20</dim>
					<dim>20</dim>
				</port>
			</output>
		</layer>
		<layer id="287" name="__module.model.6.m.0.0.mlp.0.conv/aten::_convolution/Reshape" type="Const" version="opset1">
			<data element_type="f32" shape="1, 128, 1, 1" offset="282844" size="512" />
			<output>
				<port id="0" precision="FP32">
					<dim>1</dim>
					<dim>128</dim>
					<dim>1</dim>
					<dim>1</dim>
				</port>
			</output>
		</layer>
		<layer id="288" name="__module.model.6.m.0.0.mlp.0.conv/aten::_convolution/Add" type="Add" version="opset1">
			<data auto_broadcast="numpy" />
			<input>
				<port id="0" precision="FP32">
					<dim>1</dim>
					<dim>128</dim>
					<dim>20</dim>
					<dim>20</dim>
				</port>
				<port id="1" precision="FP32">
					<dim>1</dim>
					<dim>128</dim>
					<dim>1</dim>
					<dim>1</dim>
				</port>
			</input>
			<output>
				<port id="2" precision="FP32" names="376_1">
					<dim>1</dim>
					<dim>128</dim>
					<dim>20</dim>
					<dim>20</dim>
				</port>
			</output>
		</layer>
		<layer id="289" name="__module.model.21.cv3.2.1.1.act/aten::silu_/Swish_13" type="Swish" version="opset4">
			<input>
				<port id="0" precision="FP32">
					<dim>1</dim>
					<dim>128</dim>
					<dim>20</dim>
					<dim>20</dim>
				</port>
			</input>
			<output>
				<port id="1" precision="FP32" names="376,input.57">
					<dim>1</dim>
					<dim>128</dim>
					<dim>20</dim>
					<dim>20</dim>
				</port>
			</output>
		</layer>
		<layer id="290" name="__module.model.21.cv3.2.1.1.act/aten::silu_/Swish_13/fq_output_0/input_low" type="Const" version="opset1">
			<data element_type="f32" shape="" offset="22240" size="4" />
			<output>
				<port id="0" precision="FP32" />
			</output>
		</layer>
		<layer id="291" name="__module.model.21.cv3.2.1.1.act/aten::silu_/Swish_13/fq_output_0/input_high" type="Const" version="opset1">
			<data element_type="f32" shape="" offset="283356" size="4" />
			<output>
				<port id="0" precision="FP32" />
			</output>
		</layer>
		<layer id="292" name="__module.model.21.cv3.2.1.1.act/aten::silu_/Swish_13/fq_output_0/output_low" type="Const" version="opset1">
			<data element_type="f32" shape="" offset="22240" size="4" />
			<output>
				<port id="0" precision="FP32" />
			</output>
		</layer>
		<layer id="293" name="__module.model.21.cv3.2.1.1.act/aten::silu_/Swish_13/fq_output_0/output_high" type="Const" version="opset1">
			<data element_type="f32" shape="" offset="283356" size="4" />
			<output>
				<port id="0" precision="FP32" />
			</output>
		</layer>
		<layer id="294" name="__module.model.21.cv3.2.1.1.act/aten::silu_/Swish_13/fq_output_0" type="FakeQuantize" version="opset1">
			<data levels="256" auto_broadcast="numpy" />
			<input>
				<port id="0" precision="FP32">
					<dim>1</dim>
					<dim>128</dim>
					<dim>20</dim>
					<dim>20</dim>
				</port>
				<port id="1" precision="FP32" />
				<port id="2" precision="FP32" />
				<port id="3" precision="FP32" />
				<port id="4" precision="FP32" />
			</input>
			<output>
				<port id="5" precision="FP32">
					<dim>1</dim>
					<dim>128</dim>
					<dim>20</dim>
					<dim>20</dim>
				</port>
			</output>
		</layer>
		<layer id="295" name="Constant_582272" type="Const" version="opset1">
			<data element_type="i8" shape="64, 128, 1, 1" offset="283360" size="8192" />
			<output>
				<port id="0" precision="I8">
					<dim>64</dim>
					<dim>128</dim>
					<dim>1</dim>
					<dim>1</dim>
				</port>
			</output>
		</layer>
		<layer id="296" name="Convert_582273" type="Convert" version="opset1">
			<data destination_type="f32" />
			<input>
				<port id="0" precision="I8">
					<dim>64</dim>
					<dim>128</dim>
					<dim>1</dim>
					<dim>1</dim>
				</port>
			</input>
			<output>
				<port id="1" precision="FP32">
					<dim>64</dim>
					<dim>128</dim>
					<dim>1</dim>
					<dim>1</dim>
				</port>
			</output>
		</layer>
		<layer id="297" name="Constant_582274" type="Const" version="opset1">
			<data element_type="f32" shape="64, 1, 1, 1" offset="291552" size="256" />
			<output>
				<port id="0" precision="FP32">
					<dim>64</dim>
					<dim>1</dim>
					<dim>1</dim>
					<dim>1</dim>
				</port>
			</output>
		</layer>
		<layer id="298" name="__module.model.6.m.0.0.mlp.1.conv/aten::_convolution/Convolution/fq_weights_1" type="Multiply" version="opset1">
			<data auto_broadcast="numpy" />
			<input>
				<port id="0" precision="FP32">
					<dim>64</dim>
					<dim>128</dim>
					<dim>1</dim>
					<dim>1</dim>
				</port>
				<port id="1" precision="FP32">
					<dim>64</dim>
					<dim>1</dim>
					<dim>1</dim>
					<dim>1</dim>
				</port>
			</input>
			<output>
				<port id="2" precision="FP32">
					<dim>64</dim>
					<dim>128</dim>
					<dim>1</dim>
					<dim>1</dim>
				</port>
			</output>
		</layer>
		<layer id="299" name="__module.model.6.m.0.0.mlp.1.conv/aten::_convolution/Convolution" type="Convolution" version="opset1">
			<data strides="1, 1" dilations="1, 1" pads_begin="0, 0" pads_end="0, 0" auto_pad="explicit" />
			<input>
				<port id="0" precision="FP32">
					<dim>1</dim>
					<dim>128</dim>
					<dim>20</dim>
					<dim>20</dim>
				</port>
				<port id="1" precision="FP32">
					<dim>64</dim>
					<dim>128</dim>
					<dim>1</dim>
					<dim>1</dim>
				</port>
			</input>
			<output>
				<port id="2" precision="FP32">
					<dim>1</dim>
					<dim>64</dim>
					<dim>20</dim>
					<dim>20</dim>
				</port>
			</output>
		</layer>
		<layer id="300" name="__module.model.6.m.0.0.mlp.1.conv/aten::_convolution/Reshape" type="Const" version="opset1">
			<data element_type="f32" shape="1, 64, 1, 1" offset="291808" size="256" />
			<output>
				<port id="0" precision="FP32">
					<dim>1</dim>
					<dim>64</dim>
					<dim>1</dim>
					<dim>1</dim>
				</port>
			</output>
		</layer>
		<layer id="301" name="__module.model.6.m.0.0.mlp.1.conv/aten::_convolution/Add" type="Add" version="opset1">
			<data auto_broadcast="numpy" />
			<input>
				<port id="0" precision="FP32">
					<dim>1</dim>
					<dim>64</dim>
					<dim>20</dim>
					<dim>20</dim>
				</port>
				<port id="1" precision="FP32">
					<dim>1</dim>
					<dim>64</dim>
					<dim>1</dim>
					<dim>1</dim>
				</port>
			</input>
			<output>
				<port id="2" precision="FP32" names="386">
					<dim>1</dim>
					<dim>64</dim>
					<dim>20</dim>
					<dim>20</dim>
				</port>
			</output>
		</layer>
		<layer id="302" name="__module.model.6.m.0.0.mlp.1.conv/aten::_convolution/Add/fq_output_0/input_low" type="Const" version="opset1">
			<data element_type="f32" shape="" offset="292064" size="4" />
			<output>
				<port id="0" precision="FP32" />
			</output>
		</layer>
		<layer id="303" name="__module.model.6.m.0.0.mlp.1.conv/aten::_convolution/Add/fq_output_0/input_high" type="Const" version="opset1">
			<data element_type="f32" shape="" offset="292068" size="4" />
			<output>
				<port id="0" precision="FP32" />
			</output>
		</layer>
		<layer id="304" name="__module.model.6.m.0.0.mlp.1.conv/aten::_convolution/Add/fq_output_0/output_low" type="Const" version="opset1">
			<data element_type="f32" shape="" offset="292064" size="4" />
			<output>
				<port id="0" precision="FP32" />
			</output>
		</layer>
		<layer id="305" name="__module.model.6.m.0.0.mlp.1.conv/aten::_convolution/Add/fq_output_0/output_high" type="Const" version="opset1">
			<data element_type="f32" shape="" offset="292068" size="4" />
			<output>
				<port id="0" precision="FP32" />
			</output>
		</layer>
		<layer id="306" name="__module.model.6.m.0.0.mlp.1.conv/aten::_convolution/Add/fq_output_0" type="FakeQuantize" version="opset1">
			<data levels="256" auto_broadcast="numpy" />
			<input>
				<port id="0" precision="FP32">
					<dim>1</dim>
					<dim>64</dim>
					<dim>20</dim>
					<dim>20</dim>
				</port>
				<port id="1" precision="FP32" />
				<port id="2" precision="FP32" />
				<port id="3" precision="FP32" />
				<port id="4" precision="FP32" />
			</input>
			<output>
				<port id="5" precision="FP32">
					<dim>1</dim>
					<dim>64</dim>
					<dim>20</dim>
					<dim>20</dim>
				</port>
			</output>
		</layer>
		<layer id="307" name="__module.model.6.m.0.0/aten::add/Add_1" type="Add" version="opset1">
			<data auto_broadcast="numpy" />
			<input>
				<port id="0" precision="FP32">
					<dim>1</dim>
					<dim>64</dim>
					<dim>20</dim>
					<dim>20</dim>
				</port>
				<port id="1" precision="FP32">
					<dim>1</dim>
					<dim>64</dim>
					<dim>20</dim>
					<dim>20</dim>
				</port>
			</input>
			<output>
				<port id="2" precision="FP32" names="387,x.13">
					<dim>1</dim>
					<dim>64</dim>
					<dim>20</dim>
					<dim>20</dim>
				</port>
			</output>
		</layer>
		<layer id="308" name="__module.model.6.m.0.0/aten::add/Add_1/fq_output_0/input_low" type="Const" version="opset1">
			<data element_type="f32" shape="" offset="292072" size="4" />
			<output>
				<port id="0" precision="FP32" />
			</output>
		</layer>
		<layer id="309" name="__module.model.6.m.0.0/aten::add/Add_1/fq_output_0/input_high" type="Const" version="opset1">
			<data element_type="f32" shape="" offset="292076" size="4" />
			<output>
				<port id="0" precision="FP32" />
			</output>
		</layer>
		<layer id="310" name="__module.model.6.m.0.0/aten::add/Add_1/fq_output_0/output_low" type="Const" version="opset1">
			<data element_type="f32" shape="" offset="292072" size="4" />
			<output>
				<port id="0" precision="FP32" />
			</output>
		</layer>
		<layer id="311" name="__module.model.6.m.0.0/aten::add/Add_1/fq_output_0/output_high" type="Const" version="opset1">
			<data element_type="f32" shape="" offset="292076" size="4" />
			<output>
				<port id="0" precision="FP32" />
			</output>
		</layer>
		<layer id="312" name="__module.model.6.m.0.0/aten::add/Add_1/fq_output_0" type="FakeQuantize" version="opset1">
			<data levels="256" auto_broadcast="numpy" />
			<input>
				<port id="0" precision="FP32">
					<dim>1</dim>
					<dim>64</dim>
					<dim>20</dim>
					<dim>20</dim>
				</port>
				<port id="1" precision="FP32" />
				<port id="2" precision="FP32" />
				<port id="3" precision="FP32" />
				<port id="4" precision="FP32" />
			</input>
			<output>
				<port id="5" precision="FP32">
					<dim>1</dim>
					<dim>64</dim>
					<dim>20</dim>
					<dim>20</dim>
				</port>
			</output>
		</layer>
		<layer id="313" name="Constant_582276" type="Const" version="opset1">
			<data element_type="i8" shape="192, 64, 1, 1" offset="292080" size="12288" />
			<output>
				<port id="0" precision="I8">
					<dim>192</dim>
					<dim>64</dim>
					<dim>1</dim>
					<dim>1</dim>
				</port>
			</output>
		</layer>
		<layer id="314" name="Convert_582277" type="Convert" version="opset1">
			<data destination_type="f32" />
			<input>
				<port id="0" precision="I8">
					<dim>192</dim>
					<dim>64</dim>
					<dim>1</dim>
					<dim>1</dim>
				</port>
			</input>
			<output>
				<port id="1" precision="FP32">
					<dim>192</dim>
					<dim>64</dim>
					<dim>1</dim>
					<dim>1</dim>
				</port>
			</output>
		</layer>
		<layer id="315" name="Constant_582278" type="Const" version="opset1">
			<data element_type="f32" shape="192, 1, 1, 1" offset="304368" size="768" />
			<output>
				<port id="0" precision="FP32">
					<dim>192</dim>
					<dim>1</dim>
					<dim>1</dim>
					<dim>1</dim>
				</port>
			</output>
		</layer>
		<layer id="316" name="__module.model.6.m.0.1.attn.qkv.conv/aten::_convolution/Convolution/fq_weights_1" type="Multiply" version="opset1">
			<data auto_broadcast="numpy" />
			<input>
				<port id="0" precision="FP32">
					<dim>192</dim>
					<dim>64</dim>
					<dim>1</dim>
					<dim>1</dim>
				</port>
				<port id="1" precision="FP32">
					<dim>192</dim>
					<dim>1</dim>
					<dim>1</dim>
					<dim>1</dim>
				</port>
			</input>
			<output>
				<port id="2" precision="FP32">
					<dim>192</dim>
					<dim>64</dim>
					<dim>1</dim>
					<dim>1</dim>
				</port>
			</output>
		</layer>
		<layer id="317" name="__module.model.6.m.0.1.attn.qkv.conv/aten::_convolution/Convolution" type="Convolution" version="opset1">
			<data strides="1, 1" dilations="1, 1" pads_begin="0, 0" pads_end="0, 0" auto_pad="explicit" />
			<input>
				<port id="0" precision="FP32">
					<dim>1</dim>
					<dim>64</dim>
					<dim>20</dim>
					<dim>20</dim>
				</port>
				<port id="1" precision="FP32">
					<dim>192</dim>
					<dim>64</dim>
					<dim>1</dim>
					<dim>1</dim>
				</port>
			</input>
			<output>
				<port id="2" precision="FP32">
					<dim>1</dim>
					<dim>192</dim>
					<dim>20</dim>
					<dim>20</dim>
				</port>
			</output>
		</layer>
		<layer id="318" name="__module.model.6.m.0.1.attn.qkv.conv/aten::_convolution/Reshape" type="Const" version="opset1">
			<data element_type="f32" shape="1, 192, 1, 1" offset="305136" size="768" />
			<output>
				<port id="0" precision="FP32">
					<dim>1</dim>
					<dim>192</dim>
					<dim>1</dim>
					<dim>1</dim>
				</port>
			</output>
		</layer>
		<layer id="319" name="__module.model.6.m.0.1.attn.qkv.conv/aten::_convolution/Add" type="Add" version="opset1">
			<data auto_broadcast="numpy" />
			<input>
				<port id="0" precision="FP32">
					<dim>1</dim>
					<dim>192</dim>
					<dim>20</dim>
					<dim>20</dim>
				</port>
				<port id="1" precision="FP32">
					<dim>1</dim>
					<dim>192</dim>
					<dim>1</dim>
					<dim>1</dim>
				</port>
			</input>
			<output>
				<port id="2" precision="FP32" names="409">
					<dim>1</dim>
					<dim>192</dim>
					<dim>20</dim>
					<dim>20</dim>
				</port>
			</output>
		</layer>
		<layer id="320" name="__module.model.6.m.0.1.attn.qkv.conv/aten::_convolution/Add/fq_output_0/input_low" type="Const" version="opset1">
			<data element_type="f32" shape="" offset="305904" size="4" />
			<output>
				<port id="0" precision="FP32" />
			</output>
		</layer>
		<layer id="321" name="__module.model.6.m.0.1.attn.qkv.conv/aten::_convolution/Add/fq_output_0/input_high" type="Const" version="opset1">
			<data element_type="f32" shape="" offset="305908" size="4" />
			<output>
				<port id="0" precision="FP32" />
			</output>
		</layer>
		<layer id="322" name="__module.model.6.m.0.1.attn.qkv.conv/aten::_convolution/Add/fq_output_0/output_low" type="Const" version="opset1">
			<data element_type="f32" shape="" offset="305904" size="4" />
			<output>
				<port id="0" precision="FP32" />
			</output>
		</layer>
		<layer id="323" name="__module.model.6.m.0.1.attn.qkv.conv/aten::_convolution/Add/fq_output_0/output_high" type="Const" version="opset1">
			<data element_type="f32" shape="" offset="305908" size="4" />
			<output>
				<port id="0" precision="FP32" />
			</output>
		</layer>
		<layer id="324" name="__module.model.6.m.0.1.attn.qkv.conv/aten::_convolution/Add/fq_output_0" type="FakeQuantize" version="opset1">
			<data levels="256" auto_broadcast="numpy" />
			<input>
				<port id="0" precision="FP32">
					<dim>1</dim>
					<dim>192</dim>
					<dim>20</dim>
					<dim>20</dim>
				</port>
				<port id="1" precision="FP32" />
				<port id="2" precision="FP32" />
				<port id="3" precision="FP32" />
				<port id="4" precision="FP32" />
			</input>
			<output>
				<port id="5" precision="FP32">
					<dim>1</dim>
					<dim>192</dim>
					<dim>20</dim>
					<dim>20</dim>
				</port>
			</output>
		</layer>
		<layer id="325" name="Constant_20925" type="Const" version="opset1">
			<data element_type="i64" shape="3" offset="305912" size="24" />
			<output>
				<port id="0" precision="I64">
					<dim>3</dim>
				</port>
			</output>
		</layer>
		<layer id="326" name="__module.model.6.m.0.1.attn/aten::flatten/Reshape" type="Reshape" version="opset1">
			<data special_zero="true" />
			<input>
				<port id="0" precision="FP32">
					<dim>1</dim>
					<dim>192</dim>
					<dim>20</dim>
					<dim>20</dim>
				</port>
				<port id="1" precision="I64">
					<dim>3</dim>
				</port>
			</input>
			<output>
				<port id="2" precision="FP32" names="410">
					<dim>1</dim>
					<dim>192</dim>
					<dim>400</dim>
				</port>
			</output>
		</layer>
		<layer id="327" name="__module.model.6.m.0.1.attn/aten::transpose/Constant" type="Const" version="opset1">
			<data element_type="i32" shape="3" offset="265664" size="12" />
			<output>
				<port id="0" precision="I32">
					<dim>3</dim>
				</port>
			</output>
		</layer>
		<layer id="328" name="__module.model.6.m.0.1.attn/aten::transpose/Transpose" type="Transpose" version="opset1">
			<input>
				<port id="0" precision="FP32">
					<dim>1</dim>
					<dim>192</dim>
					<dim>400</dim>
				</port>
				<port id="1" precision="I32">
					<dim>3</dim>
				</port>
			</input>
			<output>
				<port id="2" precision="FP32" names="411,qkv.5">
					<dim>1</dim>
					<dim>400</dim>
					<dim>192</dim>
				</port>
			</output>
		</layer>
		<layer id="329" name="Constant_1872" type="Const" version="opset1">
			<data element_type="i64" shape="4" offset="265676" size="32" />
			<output>
				<port id="0" precision="I64">
					<dim>4</dim>
				</port>
			</output>
		</layer>
		<layer id="330" name="__module.model.6.m.0.1.attn/aten::view/Reshape" type="Reshape" version="opset1">
			<data special_zero="false" />
			<input>
				<port id="0" precision="FP32">
					<dim>1</dim>
					<dim>400</dim>
					<dim>192</dim>
				</port>
				<port id="1" precision="I64">
					<dim>4</dim>
				</port>
			</input>
			<output>
				<port id="2" precision="FP32" names="425">
					<dim>4</dim>
					<dim>100</dim>
					<dim>2</dim>
					<dim>96</dim>
				</port>
			</output>
		</layer>
		<layer id="331" name="Constant_1880" type="Const" version="opset1">
			<data element_type="i64" shape="4" offset="265708" size="32" />
			<output>
				<port id="0" precision="I64" names="426">
					<dim>4</dim>
				</port>
			</output>
		</layer>
		<layer id="332" name="__module.model.6.m.0.1.attn/aten::permute/Transpose" type="Transpose" version="opset1">
			<input>
				<port id="0" precision="FP32">
					<dim>4</dim>
					<dim>100</dim>
					<dim>2</dim>
					<dim>96</dim>
				</port>
				<port id="1" precision="I64">
					<dim>4</dim>
				</port>
			</input>
			<output>
				<port id="2" precision="FP32" names="427">
					<dim>4</dim>
					<dim>2</dim>
					<dim>96</dim>
					<dim>100</dim>
				</port>
			</output>
		</layer>
		<layer id="333" name="Constant_1890" type="Const" version="opset1">
			<data element_type="i64" shape="3" offset="265748" size="24" />
			<output>
				<port id="0" precision="I64" names="428">
					<dim>3</dim>
				</port>
			</output>
		</layer>
		<layer id="334" name="__module.model.6.m.0.1.attn/aten::split_with_sizes/VariadicSplit" type="VariadicSplit" version="opset1">
			<input>
				<port id="0" precision="FP32">
					<dim>4</dim>
					<dim>2</dim>
					<dim>96</dim>
					<dim>100</dim>
				</port>
				<port id="1" precision="I64" />
				<port id="2" precision="I64">
					<dim>3</dim>
				</port>
			</input>
			<output>
				<port id="3" precision="FP32" names="430,q.3">
					<dim>4</dim>
					<dim>2</dim>
					<dim>32</dim>
					<dim>100</dim>
				</port>
				<port id="4" precision="FP32" names="431,k.3">
					<dim>4</dim>
					<dim>2</dim>
					<dim>32</dim>
					<dim>100</dim>
				</port>
				<port id="5" precision="FP32" names="432,v.7">
					<dim>4</dim>
					<dim>2</dim>
					<dim>32</dim>
					<dim>100</dim>
				</port>
			</output>
		</layer>
		<layer id="335" name="__module.model.6.m.0.1.attn/aten::matmul/MatMul" type="MatMul" version="opset1">
			<data transpose_a="true" transpose_b="false" />
			<input>
				<port id="0" precision="FP32">
					<dim>4</dim>
					<dim>2</dim>
					<dim>32</dim>
					<dim>100</dim>
				</port>
				<port id="1" precision="FP32">
					<dim>4</dim>
					<dim>2</dim>
					<dim>32</dim>
					<dim>100</dim>
				</port>
			</input>
			<output>
				<port id="2" precision="FP32" names="434">
					<dim>4</dim>
					<dim>2</dim>
					<dim>100</dim>
					<dim>100</dim>
				</port>
			</output>
		</layer>
		<layer id="336" name="Constant_20717" type="Const" version="opset1">
			<data element_type="f32" shape="1, 1, 1, 1" offset="265772" size="4" />
			<output>
				<port id="0" precision="FP32">
					<dim>1</dim>
					<dim>1</dim>
					<dim>1</dim>
					<dim>1</dim>
				</port>
			</output>
		</layer>
		<layer id="337" name="__module.model.6.m.0.1.attn/aten::mul/Multiply" type="Multiply" version="opset1">
			<data auto_broadcast="numpy" />
			<input>
				<port id="0" precision="FP32">
					<dim>4</dim>
					<dim>2</dim>
					<dim>100</dim>
					<dim>100</dim>
				</port>
				<port id="1" precision="FP32">
					<dim>1</dim>
					<dim>1</dim>
					<dim>1</dim>
					<dim>1</dim>
				</port>
			</input>
			<output>
				<port id="2" precision="FP32" names="435,attn.5">
					<dim>4</dim>
					<dim>2</dim>
					<dim>100</dim>
					<dim>100</dim>
				</port>
			</output>
		</layer>
		<layer id="338" name="__module.model.6.m.0.1.attn/aten::softmax/Softmax" type="SoftMax" version="opset8">
			<data axis="-1" />
			<input>
				<port id="0" precision="FP32">
					<dim>4</dim>
					<dim>2</dim>
					<dim>100</dim>
					<dim>100</dim>
				</port>
			</input>
			<output>
				<port id="1" precision="FP32" names="436,attn.7">
					<dim>4</dim>
					<dim>2</dim>
					<dim>100</dim>
					<dim>100</dim>
				</port>
			</output>
		</layer>
		<layer id="339" name="__module.model.6.m.0.1.attn/aten::softmax/Softmax/fq_output_0/input_low" type="Const" version="opset1">
			<data element_type="f32" shape="" offset="16800" size="4" />
			<output>
				<port id="0" precision="FP32" />
			</output>
		</layer>
		<layer id="340" name="__module.model.6.m.0.1.attn/aten::softmax/Softmax/fq_output_0/input_high" type="Const" version="opset1">
			<data element_type="f32" shape="" offset="305936" size="4" />
			<output>
				<port id="0" precision="FP32" />
			</output>
		</layer>
		<layer id="341" name="__module.model.6.m.0.1.attn/aten::softmax/Softmax/fq_output_0/output_low" type="Const" version="opset1">
			<data element_type="f32" shape="" offset="16800" size="4" />
			<output>
				<port id="0" precision="FP32" />
			</output>
		</layer>
		<layer id="342" name="__module.model.6.m.0.1.attn/aten::softmax/Softmax/fq_output_0/output_high" type="Const" version="opset1">
			<data element_type="f32" shape="" offset="305936" size="4" />
			<output>
				<port id="0" precision="FP32" />
			</output>
		</layer>
		<layer id="343" name="__module.model.6.m.0.1.attn/aten::softmax/Softmax/fq_output_0" type="FakeQuantize" version="opset1">
			<data levels="256" auto_broadcast="numpy" />
			<input>
				<port id="0" precision="FP32">
					<dim>4</dim>
					<dim>2</dim>
					<dim>100</dim>
					<dim>100</dim>
				</port>
				<port id="1" precision="FP32" />
				<port id="2" precision="FP32" />
				<port id="3" precision="FP32" />
				<port id="4" precision="FP32" />
			</input>
			<output>
				<port id="5" precision="FP32">
					<dim>4</dim>
					<dim>2</dim>
					<dim>100</dim>
					<dim>100</dim>
				</port>
			</output>
		</layer>
		<layer id="344" name="__module.model.6.m.0.1.attn/aten::matmul/MatMul_1" type="MatMul" version="opset1">
			<data transpose_a="false" transpose_b="true" />
			<input>
				<port id="0" precision="FP32">
					<dim>4</dim>
					<dim>2</dim>
					<dim>32</dim>
					<dim>100</dim>
				</port>
				<port id="1" precision="FP32">
					<dim>4</dim>
					<dim>2</dim>
					<dim>100</dim>
					<dim>100</dim>
				</port>
			</input>
			<output>
				<port id="2" precision="FP32" names="438,x.15">
					<dim>4</dim>
					<dim>2</dim>
					<dim>32</dim>
					<dim>100</dim>
				</port>
			</output>
		</layer>
		<layer id="345" name="__module.model.6.m.0.1.attn/aten::matmul/MatMul_1/fq_output_0/input_low" type="Const" version="opset1">
			<data element_type="f32" shape="" offset="305940" size="4" />
			<output>
				<port id="0" precision="FP32" />
			</output>
		</layer>
		<layer id="346" name="__module.model.6.m.0.1.attn/aten::matmul/MatMul_1/fq_output_0/input_high" type="Const" version="opset1">
			<data element_type="f32" shape="" offset="305944" size="4" />
			<output>
				<port id="0" precision="FP32" />
			</output>
		</layer>
		<layer id="347" name="__module.model.6.m.0.1.attn/aten::matmul/MatMul_1/fq_output_0/output_low" type="Const" version="opset1">
			<data element_type="f32" shape="" offset="305940" size="4" />
			<output>
				<port id="0" precision="FP32" />
			</output>
		</layer>
		<layer id="348" name="__module.model.6.m.0.1.attn/aten::matmul/MatMul_1/fq_output_0/output_high" type="Const" version="opset1">
			<data element_type="f32" shape="" offset="305944" size="4" />
			<output>
				<port id="0" precision="FP32" />
			</output>
		</layer>
		<layer id="349" name="__module.model.6.m.0.1.attn/aten::matmul/MatMul_1/fq_output_0" type="FakeQuantize" version="opset1">
			<data levels="256" auto_broadcast="numpy" />
			<input>
				<port id="0" precision="FP32">
					<dim>4</dim>
					<dim>2</dim>
					<dim>32</dim>
					<dim>100</dim>
				</port>
				<port id="1" precision="FP32" />
				<port id="2" precision="FP32" />
				<port id="3" precision="FP32" />
				<port id="4" precision="FP32" />
			</input>
			<output>
				<port id="5" precision="FP32">
					<dim>4</dim>
					<dim>2</dim>
					<dim>32</dim>
					<dim>100</dim>
				</port>
			</output>
		</layer>
		<layer id="350" name="Constant_2054" type="Const" version="opset1">
			<data element_type="i64" shape="4" offset="265788" size="32" />
			<output>
				<port id="0" precision="I64" names="439">
					<dim>4</dim>
				</port>
			</output>
		</layer>
		<layer id="351" name="__module.model.6.m.0.1.attn/aten::permute/Transpose_1" type="Transpose" version="opset1">
			<input>
				<port id="0" precision="FP32">
					<dim>4</dim>
					<dim>2</dim>
					<dim>32</dim>
					<dim>100</dim>
				</port>
				<port id="1" precision="I64">
					<dim>4</dim>
				</port>
			</input>
			<output>
				<port id="2" precision="FP32" names="440,x.17">
					<dim>4</dim>
					<dim>100</dim>
					<dim>2</dim>
					<dim>32</dim>
				</port>
			</output>
		</layer>
		<layer id="352" name="Constant_2223" type="Const" version="opset1">
			<data element_type="i64" shape="4" offset="265820" size="32" />
			<output>
				<port id="0" precision="I64">
					<dim>4</dim>
				</port>
			</output>
		</layer>
		<layer id="353" name="__module.model.6.m.0.1.attn/aten::reshape/Reshape_2" type="Reshape" version="opset1">
			<data special_zero="false" />
			<input>
				<port id="0" precision="FP32">
					<dim>4</dim>
					<dim>100</dim>
					<dim>2</dim>
					<dim>32</dim>
				</port>
				<port id="1" precision="I64">
					<dim>4</dim>
				</port>
			</input>
			<output>
				<port id="2" precision="FP32" names="457">
					<dim>1</dim>
					<dim>20</dim>
					<dim>20</dim>
					<dim>64</dim>
				</port>
			</output>
		</layer>
		<layer id="354" name="Constant_2231" type="Const" version="opset1">
			<data element_type="i64" shape="4" offset="265788" size="32" />
			<output>
				<port id="0" precision="I64" names="458">
					<dim>4</dim>
				</port>
			</output>
		</layer>
		<layer id="355" name="__module.model.6.m.0.1.attn/aten::permute/Transpose_2" type="Transpose" version="opset1">
			<input>
				<port id="0" precision="FP32">
					<dim>1</dim>
					<dim>20</dim>
					<dim>20</dim>
					<dim>64</dim>
				</port>
				<port id="1" precision="I64">
					<dim>4</dim>
				</port>
			</input>
			<output>
				<port id="2" precision="FP32" names="459">
					<dim>1</dim>
					<dim>64</dim>
					<dim>20</dim>
					<dim>20</dim>
				</port>
			</output>
		</layer>
		<layer id="356" name="Constant_2065" type="Const" version="opset1">
			<data element_type="i64" shape="4" offset="265788" size="32" />
			<output>
				<port id="0" precision="I64" names="441">
					<dim>4</dim>
				</port>
			</output>
		</layer>
		<layer id="357" name="__module.model.6.m.0.1.attn/aten::permute/Transpose_3" type="Transpose" version="opset1">
			<input>
				<port id="0" precision="FP32">
					<dim>4</dim>
					<dim>2</dim>
					<dim>32</dim>
					<dim>100</dim>
				</port>
				<port id="1" precision="I64">
					<dim>4</dim>
				</port>
			</input>
			<output>
				<port id="2" precision="FP32" names="442,v.9">
					<dim>4</dim>
					<dim>100</dim>
					<dim>2</dim>
					<dim>32</dim>
				</port>
			</output>
		</layer>
		<layer id="358" name="Constant_2248" type="Const" version="opset1">
			<data element_type="i64" shape="4" offset="265820" size="32" />
			<output>
				<port id="0" precision="I64">
					<dim>4</dim>
				</port>
			</output>
		</layer>
		<layer id="359" name="__module.model.6.m.0.1.attn/aten::reshape/Reshape_4" type="Reshape" version="opset1">
			<data special_zero="false" />
			<input>
				<port id="0" precision="FP32">
					<dim>4</dim>
					<dim>100</dim>
					<dim>2</dim>
					<dim>32</dim>
				</port>
				<port id="1" precision="I64">
					<dim>4</dim>
				</port>
			</input>
			<output>
				<port id="2" precision="FP32" names="462">
					<dim>1</dim>
					<dim>20</dim>
					<dim>20</dim>
					<dim>64</dim>
				</port>
			</output>
		</layer>
		<layer id="360" name="Constant_2256" type="Const" version="opset1">
			<data element_type="i64" shape="4" offset="265788" size="32" />
			<output>
				<port id="0" precision="I64" names="463">
					<dim>4</dim>
				</port>
			</output>
		</layer>
		<layer id="361" name="__module.model.6.m.0.1.attn/aten::permute/Transpose_4" type="Transpose" version="opset1">
			<input>
				<port id="0" precision="FP32">
					<dim>1</dim>
					<dim>20</dim>
					<dim>20</dim>
					<dim>64</dim>
				</port>
				<port id="1" precision="I64">
					<dim>4</dim>
				</port>
			</input>
			<output>
				<port id="2" precision="FP32" names="464">
					<dim>1</dim>
					<dim>64</dim>
					<dim>20</dim>
					<dim>20</dim>
				</port>
			</output>
		</layer>
		<layer id="362" name="Constant_582280" type="Const" version="opset1">
			<data element_type="i8" shape="64, 1, 1, 7, 7" offset="305948" size="3136" />
			<output>
				<port id="0" precision="I8">
					<dim>64</dim>
					<dim>1</dim>
					<dim>1</dim>
					<dim>7</dim>
					<dim>7</dim>
				</port>
			</output>
		</layer>
		<layer id="363" name="Convert_582281" type="Convert" version="opset1">
			<data destination_type="f32" />
			<input>
				<port id="0" precision="I8">
					<dim>64</dim>
					<dim>1</dim>
					<dim>1</dim>
					<dim>7</dim>
					<dim>7</dim>
				</port>
			</input>
			<output>
				<port id="1" precision="FP32">
					<dim>64</dim>
					<dim>1</dim>
					<dim>1</dim>
					<dim>7</dim>
					<dim>7</dim>
				</port>
			</output>
		</layer>
		<layer id="364" name="Constant_582282" type="Const" version="opset1">
			<data element_type="f32" shape="64, 1, 1, 1, 1" offset="309084" size="256" />
			<output>
				<port id="0" precision="FP32">
					<dim>64</dim>
					<dim>1</dim>
					<dim>1</dim>
					<dim>1</dim>
					<dim>1</dim>
				</port>
			</output>
		</layer>
		<layer id="365" name="__module.model.6.m.0.1.attn.pe.conv/aten::_convolution/GroupConvolution/fq_weights_1" type="Multiply" version="opset1">
			<data auto_broadcast="numpy" />
			<input>
				<port id="0" precision="FP32">
					<dim>64</dim>
					<dim>1</dim>
					<dim>1</dim>
					<dim>7</dim>
					<dim>7</dim>
				</port>
				<port id="1" precision="FP32">
					<dim>64</dim>
					<dim>1</dim>
					<dim>1</dim>
					<dim>1</dim>
					<dim>1</dim>
				</port>
			</input>
			<output>
				<port id="2" precision="FP32">
					<dim>64</dim>
					<dim>1</dim>
					<dim>1</dim>
					<dim>7</dim>
					<dim>7</dim>
				</port>
			</output>
		</layer>
		<layer id="366" name="__module.model.6.m.0.1.attn.pe.conv/aten::_convolution/GroupConvolution" type="GroupConvolution" version="opset1">
			<data strides="1, 1" pads_begin="3, 3" pads_end="3, 3" dilations="1, 1" auto_pad="explicit" />
			<input>
				<port id="0" precision="FP32">
					<dim>1</dim>
					<dim>64</dim>
					<dim>20</dim>
					<dim>20</dim>
				</port>
				<port id="1" precision="FP32">
					<dim>64</dim>
					<dim>1</dim>
					<dim>1</dim>
					<dim>7</dim>
					<dim>7</dim>
				</port>
			</input>
			<output>
				<port id="2" precision="FP32">
					<dim>1</dim>
					<dim>64</dim>
					<dim>20</dim>
					<dim>20</dim>
				</port>
			</output>
		</layer>
		<layer id="367" name="__module.model.6.m.0.1.attn.pe.conv/aten::_convolution/Reshape_1" type="Const" version="opset1">
			<data element_type="f32" shape="1, 64, 1, 1" offset="309340" size="256" />
			<output>
				<port id="0" precision="FP32">
					<dim>1</dim>
					<dim>64</dim>
					<dim>1</dim>
					<dim>1</dim>
				</port>
			</output>
		</layer>
		<layer id="368" name="__module.model.6.m.0.1.attn.pe.conv/aten::_convolution/Add" type="Add" version="opset1">
			<data auto_broadcast="numpy" />
			<input>
				<port id="0" precision="FP32">
					<dim>1</dim>
					<dim>64</dim>
					<dim>20</dim>
					<dim>20</dim>
				</port>
				<port id="1" precision="FP32">
					<dim>1</dim>
					<dim>64</dim>
					<dim>1</dim>
					<dim>1</dim>
				</port>
			</input>
			<output>
				<port id="2" precision="FP32" names="473">
					<dim>1</dim>
					<dim>64</dim>
					<dim>20</dim>
					<dim>20</dim>
				</port>
			</output>
		</layer>
		<layer id="369" name="__module.model.6.m.0.1.attn.pe.conv/aten::_convolution/Add/fq_output_0/input_low" type="Const" version="opset1">
			<data element_type="f32" shape="" offset="309596" size="4" />
			<output>
				<port id="0" precision="FP32" />
			</output>
		</layer>
		<layer id="370" name="__module.model.6.m.0.1.attn.pe.conv/aten::_convolution/Add/fq_output_0/input_high" type="Const" version="opset1">
			<data element_type="f32" shape="" offset="309600" size="4" />
			<output>
				<port id="0" precision="FP32" />
			</output>
		</layer>
		<layer id="371" name="__module.model.6.m.0.1.attn.pe.conv/aten::_convolution/Add/fq_output_0/output_low" type="Const" version="opset1">
			<data element_type="f32" shape="" offset="309596" size="4" />
			<output>
				<port id="0" precision="FP32" />
			</output>
		</layer>
		<layer id="372" name="__module.model.6.m.0.1.attn.pe.conv/aten::_convolution/Add/fq_output_0/output_high" type="Const" version="opset1">
			<data element_type="f32" shape="" offset="309600" size="4" />
			<output>
				<port id="0" precision="FP32" />
			</output>
		</layer>
		<layer id="373" name="__module.model.6.m.0.1.attn.pe.conv/aten::_convolution/Add/fq_output_0" type="FakeQuantize" version="opset1">
			<data levels="256" auto_broadcast="numpy" />
			<input>
				<port id="0" precision="FP32">
					<dim>1</dim>
					<dim>64</dim>
					<dim>20</dim>
					<dim>20</dim>
				</port>
				<port id="1" precision="FP32" />
				<port id="2" precision="FP32" />
				<port id="3" precision="FP32" />
				<port id="4" precision="FP32" />
			</input>
			<output>
				<port id="5" precision="FP32">
					<dim>1</dim>
					<dim>64</dim>
					<dim>20</dim>
					<dim>20</dim>
				</port>
			</output>
		</layer>
…
		<edge from-layer="1425" from-port="2" to-layer="1426" to-port="0" />
		<edge from-layer="1426" from-port="1" to-layer="1431" to-port="0" />
		<edge from-layer="1427" from-port="0" to-layer="1431" to-port="1" />
		<edge from-layer="1428" from-port="0" to-layer="1431" to-port="2" />
		<edge from-layer="1429" from-port="0" to-layer="1431" to-port="3" />
		<edge from-layer="1430" from-port="0" to-layer="1431" to-port="4" />
		<edge from-layer="1431" from-port="5" to-layer="1432" to-port="1" />
		<edge from-layer="1432" from-port="2" to-layer="1437" to-port="0" />
		<edge from-layer="1433" from-port="0" to-layer="1434" to-port="0" />
		<edge from-layer="1434" from-port="1" to-layer="1436" to-port="0" />
		<edge from-layer="1435" from-port="0" to-layer="1436" to-port="1" />
		<edge from-layer="1436" from-port="2" to-layer="1437" to-port="1" />
		<edge from-layer="1437" from-port="2" to-layer="1439" to-port="0" />
		<edge from-layer="1438" from-port="0" to-layer="1439" to-port="1" />
		<edge from-layer="1439" from-port="2" to-layer="1440" to-port="0" />
		<edge from-layer="1440" from-port="1" to-layer="1445" to-port="0" />
		<edge from-layer="1441" from-port="0" to-layer="1445" to-port="1" />
		<edge from-layer="1442" from-port="0" to-layer="1445" to-port="2" />
		<edge from-layer="1443" from-port="0" to-layer="1445" to-port="3" />
		<edge from-layer="1444" from-port="0" to-layer="1445" to-port="4" />
		<edge from-layer="1445" from-port="5" to-layer="1446" to-port="1" />
		<edge from-layer="1446" from-port="2" to-layer="1451" to-port="0" />
		<edge from-layer="1447" from-port="0" to-layer="1448" to-port="0" />
		<edge from-layer="1448" from-port="1" to-layer="1450" to-port="0" />
		<edge from-layer="1449" from-port="0" to-layer="1450" to-port="1" />
		<edge from-layer="1450" from-port="2" to-layer="1451" to-port="1" />
		<edge from-layer="1451" from-port="2" to-layer="1453" to-port="0" />
		<edge from-layer="1452" from-port="0" to-layer="1453" to-port="1" />
		<edge from-layer="1453" from-port="2" to-layer="1454" to-port="0" />
		<edge from-layer="1454" from-port="1" to-layer="1459" to-port="0" />
		<edge from-layer="1455" from-port="0" to-layer="1459" to-port="1" />
		<edge from-layer="1456" from-port="0" to-layer="1459" to-port="2" />
		<edge from-layer="1457" from-port="0" to-layer="1459" to-port="3" />
		<edge from-layer="1458" from-port="0" to-layer="1459" to-port="4" />
		<edge from-layer="1459" from-port="5" to-layer="1499" to-port="0" />
		<edge from-layer="1459" from-port="5" to-layer="1902" to-port="0" />
		<edge from-layer="1459" from-port="5" to-layer="1464" to-port="0" />
		<edge from-layer="1460" from-port="0" to-layer="1461" to-port="0" />
		<edge from-layer="1461" from-port="1" to-layer="1463" to-port="0" />
		<edge from-layer="1462" from-port="0" to-layer="1463" to-port="1" />
		<edge from-layer="1463" from-port="2" to-layer="1464" to-port="1" />
		<edge from-layer="1464" from-port="2" to-layer="1466" to-port="0" />
		<edge from-layer="1465" from-port="0" to-layer="1466" to-port="1" />
		<edge from-layer="1466" from-port="2" to-layer="1467" to-port="0" />
		<edge from-layer="1467" from-port="1" to-layer="1472" to-port="0" />
		<edge from-layer="1468" from-port="0" to-layer="1472" to-port="1" />
		<edge from-layer="1469" from-port="0" to-layer="1472" to-port="2" />
		<edge from-layer="1470" from-port="0" to-layer="1472" to-port="3" />
		<edge from-layer="1471" from-port="0" to-layer="1472" to-port="4" />
		<edge from-layer="1472" from-port="5" to-layer="1477" to-port="0" />
		<edge from-layer="1473" from-port="0" to-layer="1474" to-port="0" />
		<edge from-layer="1474" from-port="1" to-layer="1476" to-port="0" />
		<edge from-layer="1475" from-port="0" to-layer="1476" to-port="1" />
		<edge from-layer="1476" from-port="2" to-layer="1477" to-port="1" />
		<edge from-layer="1477" from-port="2" to-layer="1479" to-port="0" />
		<edge from-layer="1478" from-port="0" to-layer="1479" to-port="1" />
		<edge from-layer="1479" from-port="2" to-layer="1480" to-port="0" />
		<edge from-layer="1480" from-port="1" to-layer="1485" to-port="0" />
		<edge from-layer="1481" from-port="0" to-layer="1485" to-port="1" />
		<edge from-layer="1482" from-port="0" to-layer="1485" to-port="2" />
		<edge from-layer="1483" from-port="0" to-layer="1485" to-port="3" />
		<edge from-layer="1484" from-port="0" to-layer="1485" to-port="4" />
		<edge from-layer="1485" from-port="5" to-layer="1490" to-port="0" />
		<edge from-layer="1486" from-port="0" to-layer="1487" to-port="0" />
		<edge from-layer="1487" from-port="1" to-layer="1489" to-port="0" />
		<edge from-layer="1488" from-port="0" to-layer="1489" to-port="1" />
		<edge from-layer="1489" from-port="2" to-layer="1490" to-port="1" />
		<edge from-layer="1490" from-port="2" to-layer="1492" to-port="0" />
		<edge from-layer="1491" from-port="0" to-layer="1492" to-port="1" />
		<edge from-layer="1492" from-port="2" to-layer="1494" to-port="0" />
		<edge from-layer="1493" from-port="0" to-layer="1494" to-port="1" />
		<edge from-layer="1494" from-port="2" to-layer="1858" to-port="0" />
		<edge from-layer="1495" from-port="0" to-layer="1496" to-port="0" />
		<edge from-layer="1496" from-port="1" to-layer="1498" to-port="0" />
		<edge from-layer="1497" from-port="0" to-layer="1498" to-port="1" />
		<edge from-layer="1498" from-port="2" to-layer="1499" to-port="1" />
		<edge from-layer="1499" from-port="2" to-layer="1501" to-port="0" />
		<edge from-layer="1500" from-port="0" to-layer="1501" to-port="1" />
		<edge from-layer="1501" from-port="2" to-layer="1502" to-port="0" />
		<edge from-layer="1502" from-port="1" to-layer="1507" to-port="0" />
		<edge from-layer="1503" from-port="0" to-layer="1507" to-port="1" />
		<edge from-layer="1504" from-port="0" to-layer="1507" to-port="2" />
		<edge from-layer="1505" from-port="0" to-layer="1507" to-port="3" />
		<edge from-layer="1506" from-port="0" to-layer="1507" to-port="4" />
		<edge from-layer="1507" from-port="5" to-layer="1508" to-port="0" />
		<edge from-layer="1508" from-port="2" to-layer="1513" to-port="0" />
		<edge from-layer="1509" from-port="0" to-layer="1510" to-port="0" />
		<edge from-layer="1510" from-port="1" to-layer="1512" to-port="0" />
		<edge from-layer="1511" from-port="0" to-layer="1512" to-port="1" />
		<edge from-layer="1512" from-port="2" to-layer="1513" to-port="1" />
		<edge from-layer="1513" from-port="2" to-layer="1515" to-port="0" />
		<edge from-layer="1514" from-port="0" to-layer="1515" to-port="1" />
		<edge from-layer="1515" from-port="2" to-layer="1516" to-port="0" />
		<edge from-layer="1516" from-port="1" to-layer="1521" to-port="0" />
		<edge from-layer="1517" from-port="0" to-layer="1521" to-port="1" />
		<edge from-layer="1518" from-port="0" to-layer="1521" to-port="2" />
		<edge from-layer="1519" from-port="0" to-layer="1521" to-port="3" />
		<edge from-layer="1520" from-port="0" to-layer="1521" to-port="4" />
		<edge from-layer="1521" from-port="5" to-layer="1603" to-port="0" />
		<edge from-layer="1521" from-port="5" to-layer="1626" to-port="0" />
		<edge from-layer="1521" from-port="5" to-layer="1526" to-port="0" />
		<edge from-layer="1522" from-port="0" to-layer="1523" to-port="0" />
		<edge from-layer="1523" from-port="1" to-layer="1525" to-port="0" />
		<edge from-layer="1524" from-port="0" to-layer="1525" to-port="1" />
		<edge from-layer="1525" from-port="2" to-layer="1526" to-port="1" />
		<edge from-layer="1526" from-port="2" to-layer="1528" to-port="0" />
		<edge from-layer="1527" from-port="0" to-layer="1528" to-port="1" />
		<edge from-layer="1528" from-port="2" to-layer="1529" to-port="0" />
		<edge from-layer="1529" from-port="1" to-layer="1534" to-port="0" />
		<edge from-layer="1530" from-port="0" to-layer="1534" to-port="1" />
		<edge from-layer="1531" from-port="0" to-layer="1534" to-port="2" />
		<edge from-layer="1532" from-port="0" to-layer="1534" to-port="3" />
		<edge from-layer="1533" from-port="0" to-layer="1534" to-port="4" />
		<edge from-layer="1534" from-port="5" to-layer="1539" to-port="0" />
		<edge from-layer="1534" from-port="5" to-layer="1561" to-port="0" />
		<edge from-layer="1535" from-port="0" to-layer="1536" to-port="0" />
		<edge from-layer="1536" from-port="1" to-layer="1538" to-port="0" />
		<edge from-layer="1537" from-port="0" to-layer="1538" to-port="1" />
		<edge from-layer="1538" from-port="2" to-layer="1539" to-port="1" />
		<edge from-layer="1539" from-port="2" to-layer="1541" to-port="0" />
		<edge from-layer="1540" from-port="0" to-layer="1541" to-port="1" />
		<edge from-layer="1541" from-port="2" to-layer="1542" to-port="0" />
		<edge from-layer="1542" from-port="1" to-layer="1547" to-port="0" />
		<edge from-layer="1543" from-port="0" to-layer="1547" to-port="1" />
		<edge from-layer="1544" from-port="0" to-layer="1547" to-port="2" />
		<edge from-layer="1545" from-port="0" to-layer="1547" to-port="3" />
		<edge from-layer="1546" from-port="0" to-layer="1547" to-port="4" />
		<edge from-layer="1547" from-port="5" to-layer="1552" to-port="0" />
		<edge from-layer="1548" from-port="0" to-layer="1549" to-port="0" />
		<edge from-layer="1549" from-port="1" to-layer="1551" to-port="0" />
		<edge from-layer="1550" from-port="0" to-layer="1551" to-port="1" />
		<edge from-layer="1551" from-port="2" to-layer="1552" to-port="1" />
		<edge from-layer="1552" from-port="2" to-layer="1554" to-port="0" />
		<edge from-layer="1553" from-port="0" to-layer="1554" to-port="1" />
		<edge from-layer="1554" from-port="2" to-layer="1555" to-port="0" />
		<edge from-layer="1555" from-port="1" to-layer="1560" to-port="0" />
		<edge from-layer="1556" from-port="0" to-layer="1560" to-port="1" />
		<edge from-layer="1557" from-port="0" to-layer="1560" to-port="2" />
		<edge from-layer="1558" from-port="0" to-layer="1560" to-port="3" />
		<edge from-layer="1559" from-port="0" to-layer="1560" to-port="4" />
		<edge from-layer="1560" from-port="5" to-layer="1561" to-port="1" />
		<edge from-layer="1561" from-port="2" to-layer="1566" to-port="0" />
		<edge from-layer="1562" from-port="0" to-layer="1566" to-port="1" />
		<edge from-layer="1563" from-port="0" to-layer="1566" to-port="2" />
		<edge from-layer="1564" from-port="0" to-layer="1566" to-port="3" />
		<edge from-layer="1565" from-port="0" to-layer="1566" to-port="4" />
		<edge from-layer="1566" from-port="5" to-layer="1571" to-port="0" />
		<edge from-layer="1566" from-port="5" to-layer="1593" to-port="0" />
		<edge from-layer="1567" from-port="0" to-layer="1568" to-port="0" />
		<edge from-layer="1568" from-port="1" to-layer="1570" to-port="0" />
		<edge from-layer="1569" from-port="0" to-layer="1570" to-port="1" />
		<edge from-layer="1570" from-port="2" to-layer="1571" to-port="1" />
		<edge from-layer="1571" from-port="2" to-layer="1573" to-port="0" />
		<edge from-layer="1572" from-port="0" to-layer="1573" to-port="1" />
		<edge from-layer="1573" from-port="2" to-layer="1574" to-port="0" />
		<edge from-layer="1574" from-port="1" to-layer="1579" to-port="0" />
		<edge from-layer="1575" from-port="0" to-layer="1579" to-port="1" />
		<edge from-layer="1576" from-port="0" to-layer="1579" to-port="2" />
		<edge from-layer="1577" from-port="0" to-layer="1579" to-port="3" />
		<edge from-layer="1578" from-port="0" to-layer="1579" to-port="4" />
		<edge from-layer="1579" from-port="5" to-layer="1584" to-port="0" />
		<edge from-layer="1580" from-port="0" to-layer="1581" to-port="0" />
		<edge from-layer="1581" from-port="1" to-layer="1583" to-port="0" />
		<edge from-layer="1582" from-port="0" to-layer="1583" to-port="1" />
		<edge from-layer="1583" from-port="2" to-layer="1584" to-port="1" />
		<edge from-layer="1584" from-port="2" to-layer="1586" to-port="0" />
		<edge from-layer="1585" from-port="0" to-layer="1586" to-port="1" />
		<edge from-layer="1586" from-port="2" to-layer="1587" to-port="0" />
		<edge from-layer="1587" from-port="1" to-layer="1592" to-port="0" />
		<edge from-layer="1588" from-port="0" to-layer="1592" to-port="1" />
		<edge from-layer="1589" from-port="0" to-layer="1592" to-port="2" />
		<edge from-layer="1590" from-port="0" to-layer="1592" to-port="3" />
		<edge from-layer="1591" from-port="0" to-layer="1592" to-port="4" />
		<edge from-layer="1592" from-port="5" to-layer="1593" to-port="1" />
		<edge from-layer="1593" from-port="2" to-layer="1598" to-port="0" />
		<edge from-layer="1594" from-port="0" to-layer="1598" to-port="1" />
		<edge from-layer="1595" from-port="0" to-layer="1598" to-port="2" />
		<edge from-layer="1596" from-port="0" to-layer="1598" to-port="3" />
		<edge from-layer="1597" from-port="0" to-layer="1598" to-port="4" />
		<edge from-layer="1598" from-port="5" to-layer="1612" to-port="0" />
		<edge from-layer="1599" from-port="0" to-layer="1600" to-port="0" />
		<edge from-layer="1600" from-port="1" to-layer="1602" to-port="0" />
		<edge from-layer="1601" from-port="0" to-layer="1602" to-port="1" />
		<edge from-layer="1602" from-port="2" to-layer="1603" to-port="1" />
		<edge from-layer="1603" from-port="2" to-layer="1605" to-port="0" />
		<edge from-layer="1604" from-port="0" to-layer="1605" to-port="1" />
		<edge from-layer="1605" from-port="2" to-layer="1606" to-port="0" />
		<edge from-layer="1606" from-port="1" to-layer="1611" to-port="0" />
		<edge from-layer="1607" from-port="0" to-layer="1611" to-port="1" />
		<edge from-layer="1608" from-port="0" to-layer="1611" to-port="2" />
		<edge from-layer="1609" from-port="0" to-layer="1611" to-port="3" />
		<edge from-layer="1610" from-port="0" to-layer="1611" to-port="4" />
		<edge from-layer="1611" from-port="5" to-layer="1612" to-port="1" />
		<edge from-layer="1612" from-port="2" to-layer="1617" to-port="0" />
		<edge from-layer="1613" from-port="0" to-layer="1614" to-port="0" />
		<edge from-layer="1614" from-port="1" to-layer="1616" to-port="0" />
		<edge from-layer="1615" from-port="0" to-layer="1616" to-port="1" />
		<edge from-layer="1616" from-port="2" to-layer="1617" to-port="1" />
		<edge from-layer="1617" from-port="2" to-layer="1619" to-port="0" />
		<edge from-layer="1618" from-port="0" to-layer="1619" to-port="1" />
		<edge from-layer="1619" from-port="2" to-layer="1620" to-port="0" />
		<edge from-layer="1620" from-port="1" to-layer="1625" to-port="0" />
		<edge from-layer="1621" from-port="0" to-layer="1625" to-port="1" />
		<edge from-layer="1622" from-port="0" to-layer="1625" to-port="2" />
		<edge from-layer="1623" from-port="0" to-layer="1625" to-port="3" />
		<edge from-layer="1624" from-port="0" to-layer="1625" to-port="4" />
		<edge from-layer="1625" from-port="5" to-layer="1626" to-port="1" />
		<edge from-layer="1626" from-port="2" to-layer="1631" to-port="0" />
		<edge from-layer="1627" from-port="0" to-layer="1628" to-port="0" />
		<edge from-layer="1628" from-port="1" to-layer="1630" to-port="0" />
		<edge from-layer="1629" from-port="0" to-layer="1630" to-port="1" />
		<edge from-layer="1630" from-port="2" to-layer="1631" to-port="1" />
		<edge from-layer="1631" from-port="2" to-layer="1633" to-port="0" />
		<edge from-layer="1632" from-port="0" to-layer="1633" to-port="1" />
		<edge from-layer="1633" from-port="2" to-layer="1634" to-port="0" />
		<edge from-layer="1634" from-port="1" to-layer="1639" to-port="0" />
		<edge from-layer="1635" from-port="0" to-layer="1639" to-port="1" />
		<edge from-layer="1636" from-port="0" to-layer="1639" to-port="2" />
		<edge from-layer="1637" from-port="0" to-layer="1639" to-port="3" />
		<edge from-layer="1638" from-port="0" to-layer="1639" to-port="4" />
		<edge from-layer="1639" from-port="5" to-layer="1644" to-port="0" />
		<edge from-layer="1639" from-port="5" to-layer="1679" to-port="0" />
		<edge from-layer="1639" from-port="5" to-layer="1963" to-port="0" />
		<edge from-layer="1640" from-port="0" to-layer="1641" to-port="0" />
		<edge from-layer="1641" from-port="1" to-layer="1643" to-port="0" />
		<edge from-layer="1642" from-port="0" to-layer="1643" to-port="1" />
		<edge from-layer="1643" from-port="2" to-layer="1644" to-port="1" />
		<edge from-layer="1644" from-port="2" to-layer="1646" to-port="0" />
		<edge from-layer="1645" from-port="0" to-layer="1646" to-port="1" />
		<edge from-layer="1646" from-port="2" to-layer="1647" to-port="0" />
		<edge from-layer="1647" from-port="1" to-layer="1652" to-port="0" />
		<edge from-layer="1648" from-port="0" to-layer="1652" to-port="1" />
		<edge from-layer="1649" from-port="0" to-layer="1652" to-port="2" />
		<edge from-layer="1650" from-port="0" to-layer="1652" to-port="3" />
		<edge from-layer="1651" from-port="0" to-layer="1652" to-port="4" />
		<edge from-layer="1652" from-port="5" to-layer="1657" to-port="0" />
		<edge from-layer="1653" from-port="0" to-layer="1654" to-port="0" />
		<edge from-layer="1654" from-port="1" to-layer="1656" to-port="0" />
		<edge from-layer="1655" from-port="0" to-layer="1656" to-port="1" />
		<edge from-layer="1656" from-port="2" to-layer="1657" to-port="1" />
		<edge from-layer="1657" from-port="2" to-layer="1659" to-port="0" />
		<edge from-layer="1658" from-port="0" to-layer="1659" to-port="1" />
		<edge from-layer="1659" from-port="2" to-layer="1660" to-port="0" />
		<edge from-layer="1660" from-port="1" to-layer="1665" to-port="0" />
		<edge from-layer="1661" from-port="0" to-layer="1665" to-port="1" />
		<edge from-layer="1662" from-port="0" to-layer="1665" to-port="2" />
		<edge from-layer="1663" from-port="0" to-layer="1665" to-port="3" />
		<edge from-layer="1664" from-port="0" to-layer="1665" to-port="4" />
		<edge from-layer="1665" from-port="5" to-layer="1670" to-port="0" />
		<edge from-layer="1666" from-port="0" to-layer="1667" to-port="0" />
		<edge from-layer="1667" from-port="1" to-layer="1669" to-port="0" />
		<edge from-layer="1668" from-port="0" to-layer="1669" to-port="1" />
		<edge from-layer="1669" from-port="2" to-layer="1670" to-port="1" />
		<edge from-layer="1670" from-port="2" to-layer="1672" to-port="0" />
		<edge from-layer="1671" from-port="0" to-layer="1672" to-port="1" />
		<edge from-layer="1672" from-port="2" to-layer="1674" to-port="0" />
		<edge from-layer="1673" from-port="0" to-layer="1674" to-port="1" />
		<edge from-layer="1674" from-port="2" to-layer="1858" to-port="1" />
		<edge from-layer="1675" from-port="0" to-layer="1676" to-port="0" />
		<edge from-layer="1676" from-port="1" to-layer="1678" to-port="0" />
		<edge from-layer="1677" from-port="0" to-layer="1678" to-port="1" />
		<edge from-layer="1678" from-port="2" to-layer="1679" to-port="1" />
		<edge from-layer="1679" from-port="2" to-layer="1681" to-port="0" />
		<edge from-layer="1680" from-port="0" to-layer="1681" to-port="1" />
		<edge from-layer="1681" from-port="2" to-layer="1682" to-port="0" />
		<edge from-layer="1682" from-port="1" to-layer="1687" to-port="0" />
		<edge from-layer="1683" from-port="0" to-layer="1687" to-port="1" />
		<edge from-layer="1684" from-port="0" to-layer="1687" to-port="2" />
		<edge from-layer="1685" from-port="0" to-layer="1687" to-port="3" />
		<edge from-layer="1686" from-port="0" to-layer="1687" to-port="4" />
		<edge from-layer="1687" from-port="5" to-layer="1688" to-port="0" />
		<edge from-layer="1688" from-port="2" to-layer="1693" to-port="0" />
		<edge from-layer="1689" from-port="0" to-layer="1690" to-port="0" />
		<edge from-layer="1690" from-port="1" to-layer="1692" to-port="0" />
		<edge from-layer="1691" from-port="0" to-layer="1692" to-port="1" />
		<edge from-layer="1692" from-port="2" to-layer="1693" to-port="1" />
		<edge from-layer="1693" from-port="2" to-layer="1695" to-port="0" />
		<edge from-layer="1694" from-port="0" to-layer="1695" to-port="1" />
		<edge from-layer="1695" from-port="2" to-layer="1696" to-port="0" />
		<edge from-layer="1696" from-port="1" to-layer="1701" to-port="0" />
		<edge from-layer="1697" from-port="0" to-layer="1701" to-port="1" />
		<edge from-layer="1698" from-port="0" to-layer="1701" to-port="2" />
		<edge from-layer="1699" from-port="0" to-layer="1701" to-port="3" />
		<edge from-layer="1700" from-port="0" to-layer="1701" to-port="4" />
		<edge from-layer="1701" from-port="5" to-layer="1704" to-port="0" />
		<edge from-layer="1702" from-port="0" to-layer="1704" to-port="1" />
		<edge from-layer="1703" from-port="0" to-layer="1704" to-port="2" />
		<edge from-layer="1704" from-port="4" to-layer="1709" to-port="0" />
		<edge from-layer="1704" from-port="4" to-layer="1786" to-port="0" />
		<edge from-layer="1704" from-port="4" to-layer="1809" to-port="1" />
		<edge from-layer="1704" from-port="3" to-layer="1809" to-port="0" />
		<edge from-layer="1705" from-port="0" to-layer="1706" to-port="0" />
		<edge from-layer="1706" from-port="1" to-layer="1708" to-port="0" />
		<edge from-layer="1707" from-port="0" to-layer="1708" to-port="1" />
		<edge from-layer="1708" from-port="2" to-layer="1709" to-port="1" />
		<edge from-layer="1709" from-port="2" to-layer="1711" to-port="0" />
		<edge from-layer="1710" from-port="0" to-layer="1711" to-port="1" />
		<edge from-layer="1711" from-port="2" to-layer="1712" to-port="0" />
		<edge from-layer="1712" from-port="1" to-layer="1717" to-port="0" />
		<edge from-layer="1713" from-port="0" to-layer="1717" to-port="1" />
		<edge from-layer="1714" from-port="0" to-layer="1717" to-port="2" />
		<edge from-layer="1715" from-port="0" to-layer="1717" to-port="3" />
		<edge from-layer="1716" from-port="0" to-layer="1717" to-port="4" />
		<edge from-layer="1717" from-port="5" to-layer="1722" to-port="0" />
		<edge from-layer="1717" from-port="5" to-layer="1744" to-port="0" />
		<edge from-layer="1718" from-port="0" to-layer="1719" to-port="0" />
		<edge from-layer="1719" from-port="1" to-layer="1721" to-port="0" />
		<edge from-layer="1720" from-port="0" to-layer="1721" to-port="1" />
		<edge from-layer="1721" from-port="2" to-layer="1722" to-port="1" />
		<edge from-layer="1722" from-port="2" to-layer="1724" to-port="0" />
		<edge from-layer="1723" from-port="0" to-layer="1724" to-port="1" />
		<edge from-layer="1724" from-port="2" to-layer="1725" to-port="0" />
		<edge from-layer="1725" from-port="1" to-layer="1730" to-port="0" />
		<edge from-layer="1726" from-port="0" to-layer="1730" to-port="1" />
		<edge from-layer="1727" from-port="0" to-layer="1730" to-port="2" />
		<edge from-layer="1728" from-port="0" to-layer="1730" to-port="3" />
		<edge from-layer="1729" from-port="0" to-layer="1730" to-port="4" />
		<edge from-layer="1730" from-port="5" to-layer="1735" to-port="0" />
		<edge from-layer="1731" from-port="0" to-layer="1732" to-port="0" />
		<edge from-layer="1732" from-port="1" to-layer="1734" to-port="0" />
		<edge from-layer="1733" from-port="0" to-layer="1734" to-port="1" />
		<edge from-layer="1734" from-port="2" to-layer="1735" to-port="1" />
		<edge from-layer="1735" from-port="2" to-layer="1737" to-port="0" />
		<edge from-layer="1736" from-port="0" to-layer="1737" to-port="1" />
		<edge from-layer="1737" from-port="2" to-layer="1738" to-port="0" />
		<edge from-layer="1738" from-port="1" to-layer="1743" to-port="0" />
		<edge from-layer="1739" from-port="0" to-layer="1743" to-port="1" />
		<edge from-layer="1740" from-port="0" to-layer="1743" to-port="2" />
		<edge from-layer="1741" from-port="0" to-layer="1743" to-port="3" />
		<edge from-layer="1742" from-port="0" to-layer="1743" to-port="4" />
		<edge from-layer="1743" from-port="5" to-layer="1744" to-port="1" />
		<edge from-layer="1744" from-port="2" to-layer="1749" to-port="0" />
		<edge from-layer="1745" from-port="0" to-layer="1749" to-port="1" />
		<edge from-layer="1746" from-port="0" to-layer="1749" to-port="2" />
		<edge from-layer="1747" from-port="0" to-layer="1749" to-port="3" />
		<edge from-layer="1748" from-port="0" to-layer="1749" to-port="4" />
		<edge from-layer="1749" from-port="5" to-layer="1776" to-port="0" />
		<edge from-layer="1749" from-port="5" to-layer="1754" to-port="0" />
		<edge from-layer="1750" from-port="0" to-layer="1751" to-port="0" />
		<edge from-layer="1751" from-port="1" to-layer="1753" to-port="0" />
		<edge from-layer="1752" from-port="0" to-layer="1753" to-port="1" />
		<edge from-layer="1753" from-port="2" to-layer="1754" to-port="1" />
		<edge from-layer="1754" from-port="2" to-layer="1756" to-port="0" />
		<edge from-layer="1755" from-port="0" to-layer="1756" to-port="1" />
		<edge from-layer="1756" from-port="2" to-layer="1757" to-port="0" />
		<edge from-layer="1757" from-port="1" to-layer="1762" to-port="0" />
		<edge from-layer="1758" from-port="0" to-layer="1762" to-port="1" />
		<edge from-layer="1759" from-port="0" to-layer="1762" to-port="2" />
		<edge from-layer="1760" from-port="0" to-layer="1762" to-port="3" />
		<edge from-layer="1761" from-port="0" to-layer="1762" to-port="4" />
		<edge from-layer="1762" from-port="5" to-layer="1767" to-port="0" />
		<edge from-layer="1763" from-port="0" to-layer="1764" to-port="0" />
		<edge from-layer="1764" from-port="1" to-layer="1766" to-port="0" />
		<edge from-layer="1765" from-port="0" to-layer="1766" to-port="1" />
		<edge from-layer="1766" from-port="2" to-layer="1767" to-port="1" />
		<edge from-layer="1767" from-port="2" to-layer="1769" to-port="0" />
		<edge from-layer="1768" from-port="0" to-layer="1769" to-port="1" />
		<edge from-layer="1769" from-port="2" to-layer="1770" to-port="0" />
		<edge from-layer="1770" from-port="1" to-layer="1775" to-port="0" />
		<edge from-layer="1771" from-port="0" to-layer="1775" to-port="1" />
		<edge from-layer="1772" from-port="0" to-layer="1775" to-port="2" />
		<edge from-layer="1773" from-port="0" to-layer="1775" to-port="3" />
		<edge from-layer="1774" from-port="0" to-layer="1775" to-port="4" />
		<edge from-layer="1775" from-port="5" to-layer="1776" to-port="1" />
		<edge from-layer="1776" from-port="2" to-layer="1781" to-port="0" />
		<edge from-layer="1777" from-port="0" to-layer="1781" to-port="1" />
		<edge from-layer="1778" from-port="0" to-layer="1781" to-port="2" />
		<edge from-layer="1779" from-port="0" to-layer="1781" to-port="3" />
		<edge from-layer="1780" from-port="0" to-layer="1781" to-port="4" />
		<edge from-layer="1781" from-port="5" to-layer="1795" to-port="0" />
		<edge from-layer="1782" from-port="0" to-layer="1783" to-port="0" />
		<edge from-layer="1783" from-port="1" to-layer="1785" to-port="0" />
		<edge from-layer="1784" from-port="0" to-layer="1785" to-port="1" />
		<edge from-layer="1785" from-port="2" to-layer="1786" to-port="1" />
		<edge from-layer="1786" from-port="2" to-layer="1788" to-port="0" />
		<edge from-layer="1787" from-port="0" to-layer="1788" to-port="1" />
		<edge from-layer="1788" from-port="2" to-layer="1789" to-port="0" />
		<edge from-layer="1789" from-port="1" to-layer="1794" to-port="0" />
		<edge from-layer="1790" from-port="0" to-layer="1794" to-port="1" />
		<edge from-layer="1791" from-port="0" to-layer="1794" to-port="2" />
		<edge from-layer="1792" from-port="0" to-layer="1794" to-port="3" />
		<edge from-layer="1793" from-port="0" to-layer="1794" to-port="4" />
		<edge from-layer="1794" from-port="5" to-layer="1795" to-port="1" />
		<edge from-layer="1795" from-port="2" to-layer="1800" to-port="0" />
		<edge from-layer="1796" from-port="0" to-layer="1797" to-port="0" />
		<edge from-layer="1797" from-port="1" to-layer="1799" to-port="0" />
		<edge from-layer="1798" from-port="0" to-layer="1799" to-port="1" />
		<edge from-layer="1799" from-port="2" to-layer="1800" to-port="1" />
		<edge from-layer="1800" from-port="2" to-layer="1802" to-port="0" />
		<edge from-layer="1801" from-port="0" to-layer="1802" to-port="1" />
		<edge from-layer="1802" from-port="2" to-layer="1803" to-port="0" />
		<edge from-layer="1803" from-port="1" to-layer="1808" to-port="0" />
		<edge from-layer="1804" from-port="0" to-layer="1808" to-port="1" />
		<edge from-layer="1805" from-port="0" to-layer="1808" to-port="2" />
		<edge from-layer="1806" from-port="0" to-layer="1808" to-port="3" />
		<edge from-layer="1807" from-port="0" to-layer="1808" to-port="4" />
		<edge from-layer="1808" from-port="5" to-layer="1809" to-port="2" />
		<edge from-layer="1809" from-port="3" to-layer="1814" to-port="0" />
		<edge from-layer="1810" from-port="0" to-layer="1811" to-port="0" />
		<edge from-layer="1811" from-port="1" to-layer="1813" to-port="0" />
		<edge from-layer="1812" from-port="0" to-layer="1813" to-port="1" />
		<edge from-layer="1813" from-port="2" to-layer="1814" to-port="1" />
		<edge from-layer="1814" from-port="2" to-layer="1816" to-port="0" />
		<edge from-layer="1815" from-port="0" to-layer="1816" to-port="1" />
		<edge from-layer="1816" from-port="2" to-layer="1817" to-port="0" />
		<edge from-layer="1817" from-port="1" to-layer="1822" to-port="0" />
		<edge from-layer="1818" from-port="0" to-layer="1822" to-port="1" />
		<edge from-layer="1819" from-port="0" to-layer="1822" to-port="2" />
		<edge from-layer="1820" from-port="0" to-layer="1822" to-port="3" />
		<edge from-layer="1821" from-port="0" to-layer="1822" to-port="4" />
		<edge from-layer="1822" from-port="5" to-layer="1827" to-port="0" />
		<edge from-layer="1822" from-port="5" to-layer="2024" to-port="0" />
		<edge from-layer="1823" from-port="0" to-layer="1824" to-port="0" />
		<edge from-layer="1824" from-port="1" to-layer="1826" to-port="0" />
		<edge from-layer="1825" from-port="0" to-layer="1826" to-port="1" />
		<edge from-layer="1826" from-port="2" to-layer="1827" to-port="1" />
		<edge from-layer="1827" from-port="2" to-layer="1829" to-port="0" />
		<edge from-layer="1828" from-port="0" to-layer="1829" to-port="1" />
		<edge from-layer="1829" from-port="2" to-layer="1830" to-port="0" />
		<edge from-layer="1830" from-port="1" to-layer="1835" to-port="0" />
		<edge from-layer="1831" from-port="0" to-layer="1835" to-port="1" />
		<edge from-layer="1832" from-port="0" to-layer="1835" to-port="2" />
		<edge from-layer="1833" from-port="0" to-layer="1835" to-port="3" />
		<edge from-layer="1834" from-port="0" to-layer="1835" to-port="4" />
		<edge from-layer="1835" from-port="5" to-layer="1840" to-port="0" />
		<edge from-layer="1836" from-port="0" to-layer="1837" to-port="0" />
		<edge from-layer="1837" from-port="1" to-layer="1839" to-port="0" />
		<edge from-layer="1838" from-port="0" to-layer="1839" to-port="1" />
		<edge from-layer="1839" from-port="2" to-layer="1840" to-port="1" />
		<edge from-layer="1840" from-port="2" to-layer="1842" to-port="0" />
		<edge from-layer="1841" from-port="0" to-layer="1842" to-port="1" />
		<edge from-layer="1842" from-port="2" to-layer="1843" to-port="0" />
		<edge from-layer="1843" from-port="1" to-layer="1848" to-port="0" />
		<edge from-layer="1844" from-port="0" to-layer="1848" to-port="1" />
		<edge from-layer="1845" from-port="0" to-layer="1848" to-port="2" />
		<edge from-layer="1846" from-port="0" to-layer="1848" to-port="3" />
		<edge from-layer="1847" from-port="0" to-layer="1848" to-port="4" />
		<edge from-layer="1848" from-port="5" to-layer="1853" to-port="0" />
		<edge from-layer="1849" from-port="0" to-layer="1850" to-port="0" />
		<edge from-layer="1850" from-port="1" to-layer="1852" to-port="0" />
		<edge from-layer="1851" from-port="0" to-layer="1852" to-port="1" />
		<edge from-layer="1852" from-port="2" to-layer="1853" to-port="1" />
		<edge from-layer="1853" from-port="2" to-layer="1855" to-port="0" />
		<edge from-layer="1854" from-port="0" to-layer="1855" to-port="1" />
		<edge from-layer="1855" from-port="2" to-layer="1857" to-port="0" />
		<edge from-layer="1856" from-port="0" to-layer="1857" to-port="1" />
		<edge from-layer="1857" from-port="2" to-layer="1858" to-port="2" />
		<edge from-layer="1858" from-port="3" to-layer="1860" to-port="0" />
		<edge from-layer="1859" from-port="0" to-layer="1860" to-port="1" />
		<edge from-layer="1860" from-port="2" to-layer="1862" to-port="0" />
		<edge from-layer="1861" from-port="0" to-layer="1862" to-port="1" />
		<edge from-layer="1862" from-port="2" to-layer="1863" to-port="0" />
		<edge from-layer="1863" from-port="1" to-layer="1868" to-port="0" />
		<edge from-layer="1864" from-port="0" to-layer="1868" to-port="1" />
		<edge from-layer="1865" from-port="0" to-layer="1868" to-port="2" />
		<edge from-layer="1866" from-port="0" to-layer="1868" to-port="3" />
		<edge from-layer="1867" from-port="0" to-layer="1868" to-port="4" />
		<edge from-layer="1868" from-port="5" to-layer="1873" to-port="0" />
		<edge from-layer="1869" from-port="0" to-layer="1870" to-port="0" />
		<edge from-layer="1870" from-port="1" to-layer="1872" to-port="0" />
		<edge from-layer="1871" from-port="0" to-layer="1872" to-port="1" />
		<edge from-layer="1872" from-port="2" to-layer="1873" to-port="1" />
		<edge from-layer="1873" from-port="2" to-layer="1875" to-port="0" />
		<edge from-layer="1874" from-port="0" to-layer="1875" to-port="1" />
		<edge from-layer="1875" from-port="2" to-layer="1888" to-port="0" />
		<edge from-layer="1875" from-port="2" to-layer="1877" to-port="0" />
		<edge from-layer="1876" from-port="0" to-layer="1888" to-port="1" />
		<edge from-layer="1876" from-port="0" to-layer="1879" to-port="1" />
		<edge from-layer="1877" from-port="1" to-layer="1879" to-port="0" />
		<edge from-layer="1878" from-port="0" to-layer="1883" to-port="1" />
		<edge from-layer="1878" from-port="0" to-layer="1879" to-port="2" />
		<edge from-layer="1879" from-port="3" to-layer="1882" to-port="0" />
		<edge from-layer="1879" from-port="3" to-layer="1881" to-port="0" />
		<edge from-layer="1880" from-port="0" to-layer="1881" to-port="1" />
		<edge from-layer="1880" from-port="0" to-layer="1882" to-port="1" />
		<edge from-layer="1881" from-port="2" to-layer="1885" to-port="0" />
		<edge from-layer="1882" from-port="2" to-layer="1883" to-port="0" />
		<edge from-layer="1883" from-port="2" to-layer="1884" to-port="0" />
		<edge from-layer="1884" from-port="1" to-layer="1885" to-port="1" />
		<edge from-layer="1885" from-port="2" to-layer="1887" to-port="0" />
		<edge from-layer="1886" from-port="0" to-layer="1887" to-port="1" />
		<edge from-layer="1887" from-port="2" to-layer="1888" to-port="2" />
		<edge from-layer="1888" from-port="3" to-layer="1889" to-port="1" />
		<edge from-layer="1888" from-port="4" to-layer="1890" to-port="1" />
		<edge from-layer="1889" from-port="2" to-layer="1891" to-port="0" />
		<edge from-layer="1889" from-port="2" to-layer="1894" to-port="1" />
		<edge from-layer="1890" from-port="2" to-layer="1891" to-port="1" />
		<edge from-layer="1890" from-port="2" to-layer="1894" to-port="0" />
		<edge from-layer="1891" from-port="2" to-layer="1893" to-port="0" />
		<edge from-layer="1892" from-port="0" to-layer="1893" to-port="1" />
		<edge from-layer="1893" from-port="2" to-layer="1895" to-port="0" />
		<edge from-layer="1894" from-port="2" to-layer="1895" to-port="1" />
		<edge from-layer="1895" from-port="2" to-layer="1897" to-port="0" />
		<edge from-layer="1896" from-port="0" to-layer="1897" to-port="1" />
		<edge from-layer="1897" from-port="2" to-layer="2083" to-port="0" />
		<edge from-layer="1898" from-port="0" to-layer="1899" to-port="0" />
		<edge from-layer="1899" from-port="1" to-layer="1901" to-port="0" />
		<edge from-layer="1900" from-port="0" to-layer="1901" to-port="1" />
		<edge from-layer="1901" from-port="2" to-layer="1902" to-port="1" />
		<edge from-layer="1902" from-port="2" to-layer="1904" to-port="0" />
		<edge from-layer="1903" from-port="0" to-layer="1904" to-port="1" />
		<edge from-layer="1904" from-port="2" to-layer="1905" to-port="0" />
		<edge from-layer="1905" from-port="1" to-layer="1910" to-port="0" />
		<edge from-layer="1906" from-port="0" to-layer="1910" to-port="1" />
		<edge from-layer="1907" from-port="0" to-layer="1910" to-port="2" />
		<edge from-layer="1908" from-port="0" to-layer="1910" to-port="3" />
		<edge from-layer="1909" from-port="0" to-layer="1910" to-port="4" />
		<edge from-layer="1910" from-port="5" to-layer="1915" to-port="0" />
		<edge from-layer="1911" from-port="0" to-layer="1912" to-port="0" />
		<edge from-layer="1912" from-port="1" to-layer="1914" to-port="0" />
		<edge from-layer="1913" from-port="0" to-layer="1914" to-port="1" />
		<edge from-layer="1914" from-port="2" to-layer="1915" to-port="1" />
		<edge from-layer="1915" from-port="2" to-layer="1917" to-port="0" />
		<edge from-layer="1916" from-port="0" to-layer="1917" to-port="1" />
		<edge from-layer="1917" from-port="2" to-layer="1918" to-port="0" />
		<edge from-layer="1918" from-port="1" to-layer="1923" to-port="0" />
		<edge from-layer="1919" from-port="0" to-layer="1923" to-port="1" />
		<edge from-layer="1920" from-port="0" to-layer="1923" to-port="2" />
		<edge from-layer="1921" from-port="0" to-layer="1923" to-port="3" />
		<edge from-layer="1922" from-port="0" to-layer="1923" to-port="4" />
		<edge from-layer="1923" from-port="5" to-layer="1928" to-port="0" />
		<edge from-layer="1924" from-port="0" to-layer="1925" to-port="0" />
		<edge from-layer="1925" from-port="1" to-layer="1927" to-port="0" />
		<edge from-layer="1926" from-port="0" to-layer="1927" to-port="1" />
		<edge from-layer="1927" from-port="2" to-layer="1928" to-port="1" />
		<edge from-layer="1928" from-port="2" to-layer="1930" to-port="0" />
		<edge from-layer="1929" from-port="0" to-layer="1930" to-port="1" />
		<edge from-layer="1930" from-port="2" to-layer="1931" to-port="0" />
		<edge from-layer="1931" from-port="1" to-layer="1936" to-port="0" />
		<edge from-layer="1932" from-port="0" to-layer="1936" to-port="1" />
		<edge from-layer="1933" from-port="0" to-layer="1936" to-port="2" />
		<edge from-layer="1934" from-port="0" to-layer="1936" to-port="3" />
		<edge from-layer="1935" from-port="0" to-layer="1936" to-port="4" />
		<edge from-layer="1936" from-port="5" to-layer="1941" to-port="0" />
		<edge from-layer="1937" from-port="0" to-layer="1938" to-port="0" />
		<edge from-layer="1938" from-port="1" to-layer="1940" to-port="0" />
		<edge from-layer="1939" from-port="0" to-layer="1940" to-port="1" />
		<edge from-layer="1940" from-port="2" to-layer="1941" to-port="1" />
		<edge from-layer="1941" from-port="2" to-layer="1943" to-port="0" />
		<edge from-layer="1942" from-port="0" to-layer="1943" to-port="1" />
		<edge from-layer="1943" from-port="2" to-layer="1944" to-port="0" />
		<edge from-layer="1944" from-port="1" to-layer="1949" to-port="0" />
		<edge from-layer="1945" from-port="0" to-layer="1949" to-port="1" />
		<edge from-layer="1946" from-port="0" to-layer="1949" to-port="2" />
		<edge from-layer="1947" from-port="0" to-layer="1949" to-port="3" />
		<edge from-layer="1948" from-port="0" to-layer="1949" to-port="4" />
		<edge from-layer="1949" from-port="5" to-layer="1954" to-port="0" />
		<edge from-layer="1950" from-port="0" to-layer="1951" to-port="0" />
		<edge from-layer="1951" from-port="1" to-layer="1953" to-port="0" />
		<edge from-layer="1952" from-port="0" to-layer="1953" to-port="1" />
		<edge from-layer="1953" from-port="2" to-layer="1954" to-port="1" />
		<edge from-layer="1954" from-port="2" to-layer="1956" to-port="0" />
		<edge from-layer="1955" from-port="0" to-layer="1956" to-port="1" />
		<edge from-layer="1956" from-port="2" to-layer="1958" to-port="0" />
		<edge from-layer="1957" from-port="0" to-layer="1958" to-port="1" />
		<edge from-layer="1958" from-port="2" to-layer="2081" to-port="0" />
		<edge from-layer="1959" from-port="0" to-layer="1960" to-port="0" />
		<edge from-layer="1960" from-port="1" to-layer="1962" to-port="0" />
		<edge from-layer="1961" from-port="0" to-layer="1962" to-port="1" />
		<edge from-layer="1962" from-port="2" to-layer="1963" to-port="1" />
		<edge from-layer="1963" from-port="2" to-layer="1965" to-port="0" />
		<edge from-layer="1964" from-port="0" to-layer="1965" to-port="1" />
		<edge from-layer="1965" from-port="2" to-layer="1966" to-port="0" />
		<edge from-layer="1966" from-port="1" to-layer="1971" to-port="0" />
		<edge from-layer="1967" from-port="0" to-layer="1971" to-port="1" />
		<edge from-layer="1968" from-port="0" to-layer="1971" to-port="2" />
		<edge from-layer="1969" from-port="0" to-layer="1971" to-port="3" />
		<edge from-layer="1970" from-port="0" to-layer="1971" to-port="4" />
		<edge from-layer="1971" from-port="5" to-layer="1976" to-port="0" />
		<edge from-layer="1972" from-port="0" to-layer="1973" to-port="0" />
		<edge from-layer="1973" from-port="1" to-layer="1975" to-port="0" />
		<edge from-layer="1974" from-port="0" to-layer="1975" to-port="1" />
		<edge from-layer="1975" from-port="2" to-layer="1976" to-port="1" />
		<edge from-layer="1976" from-port="2" to-layer="1978" to-port="0" />
		<edge from-layer="1977" from-port="0" to-layer="1978" to-port="1" />
		<edge from-layer="1978" from-port="2" to-layer="1979" to-port="0" />
		<edge from-layer="1979" from-port="1" to-layer="1984" to-port="0" />
		<edge from-layer="1980" from-port="0" to-layer="1984" to-port="1" />
		<edge from-layer="1981" from-port="0" to-layer="1984" to-port="2" />
		<edge from-layer="1982" from-port="0" to-layer="1984" to-port="3" />
		<edge from-layer="1983" from-port="0" to-layer="1984" to-port="4" />
		<edge from-layer="1984" from-port="5" to-layer="1989" to-port="0" />
		<edge from-layer="1985" from-port="0" to-layer="1986" to-port="0" />
		<edge from-layer="1986" from-port="1" to-layer="1988" to-port="0" />
		<edge from-layer="1987" from-port="0" to-layer="1988" to-port="1" />
		<edge from-layer="1988" from-port="2" to-layer="1989" to-port="1" />
		<edge from-layer="1989" from-port="2" to-layer="1991" to-port="0" />
		<edge from-layer="1990" from-port="0" to-layer="1991" to-port="1" />
		<edge from-layer="1991" from-port="2" to-layer="1992" to-port="0" />
		<edge from-layer="1992" from-port="1" to-layer="1997" to-port="0" />
		<edge from-layer="1993" from-port="0" to-layer="1997" to-port="1" />
		<edge from-layer="1994" from-port="0" to-layer="1997" to-port="2" />
		<edge from-layer="1995" from-port="0" to-layer="1997" to-port="3" />
		<edge from-layer="1996" from-port="0" to-layer="1997" to-port="4" />
		<edge from-layer="1997" from-port="5" to-layer="2002" to-port="0" />
		<edge from-layer="1998" from-port="0" to-layer="1999" to-port="0" />
		<edge from-layer="1999" from-port="1" to-layer="2001" to-port="0" />
		<edge from-layer="2000" from-port="0" to-layer="2001" to-port="1" />
		<edge from-layer="2001" from-port="2" to-layer="2002" to-port="1" />
		<edge from-layer="2002" from-port="2" to-layer="2004" to-port="0" />
		<edge from-layer="2003" from-port="0" to-layer="2004" to-port="1" />
		<edge from-layer="2004" from-port="2" to-layer="2005" to-port="0" />
		<edge from-layer="2005" from-port="1" to-layer="2010" to-port="0" />
		<edge from-layer="2006" from-port="0" to-layer="2010" to-port="1" />
		<edge from-layer="2007" from-port="0" to-layer="2010" to-port="2" />
		<edge from-layer="2008" from-port="0" to-layer="2010" to-port="3" />
		<edge from-layer="2009" from-port="0" to-layer="2010" to-port="4" />
		<edge from-layer="2010" from-port="5" to-layer="2015" to-port="0" />
		<edge from-layer="2011" from-port="0" to-layer="2012" to-port="0" />
		<edge from-layer="2012" from-port="1" to-layer="2014" to-port="0" />
		<edge from-layer="2013" from-port="0" to-layer="2014" to-port="1" />
		<edge from-layer="2014" from-port="2" to-layer="2015" to-port="1" />
		<edge from-layer="2015" from-port="2" to-layer="2017" to-port="0" />
		<edge from-layer="2016" from-port="0" to-layer="2017" to-port="1" />
		<edge from-layer="2017" from-port="2" to-layer="2019" to-port="0" />
		<edge from-layer="2018" from-port="0" to-layer="2019" to-port="1" />
		<edge from-layer="2019" from-port="2" to-layer="2081" to-port="1" />
		<edge from-layer="2020" from-port="0" to-layer="2021" to-port="0" />
		<edge from-layer="2021" from-port="1" to-layer="2023" to-port="0" />
		<edge from-layer="2022" from-port="0" to-layer="2023" to-port="1" />
		<edge from-layer="2023" from-port="2" to-layer="2024" to-port="1" />
		<edge from-layer="2024" from-port="2" to-layer="2026" to-port="0" />
		<edge from-layer="2025" from-port="0" to-layer="2026" to-port="1" />
		<edge from-layer="2026" from-port="2" to-layer="2027" to-port="0" />
		<edge from-layer="2027" from-port="1" to-layer="2032" to-port="0" />
		<edge from-layer="2028" from-port="0" to-layer="2032" to-port="1" />
		<edge from-layer="2029" from-port="0" to-layer="2032" to-port="2" />
		<edge from-layer="2030" from-port="0" to-layer="2032" to-port="3" />
		<edge from-layer="2031" from-port="0" to-layer="2032" to-port="4" />
		<edge from-layer="2032" from-port="5" to-layer="2037" to-port="0" />
		<edge from-layer="2033" from-port="0" to-layer="2034" to-port="0" />
		<edge from-layer="2034" from-port="1" to-layer="2036" to-port="0" />
		<edge from-layer="2035" from-port="0" to-layer="2036" to-port="1" />
		<edge from-layer="2036" from-port="2" to-layer="2037" to-port="1" />
		<edge from-layer="2037" from-port="2" to-layer="2039" to-port="0" />
		<edge from-layer="2038" from-port="0" to-layer="2039" to-port="1" />
		<edge from-layer="2039" from-port="2" to-layer="2040" to-port="0" />
		<edge from-layer="2040" from-port="1" to-layer="2045" to-port="0" />
		<edge from-layer="2041" from-port="0" to-layer="2045" to-port="1" />
		<edge from-layer="2042" from-port="0" to-layer="2045" to-port="2" />
		<edge from-layer="2043" from-port="0" to-layer="2045" to-port="3" />
		<edge from-layer="2044" from-port="0" to-layer="2045" to-port="4" />
		<edge from-layer="2045" from-port="5" to-layer="2050" to-port="0" />
		<edge from-layer="2046" from-port="0" to-layer="2047" to-port="0" />
		<edge from-layer="2047" from-port="1" to-layer="2049" to-port="0" />
		<edge from-layer="2048" from-port="0" to-layer="2049" to-port="1" />
		<edge from-layer="2049" from-port="2" to-layer="2050" to-port="1" />
		<edge from-layer="2050" from-port="2" to-layer="2052" to-port="0" />
		<edge from-layer="2051" from-port="0" to-layer="2052" to-port="1" />
		<edge from-layer="2052" from-port="2" to-layer="2053" to-port="0" />
		<edge from-layer="2053" from-port="1" to-layer="2058" to-port="0" />
		<edge from-layer="2054" from-port="0" to-layer="2058" to-port="1" />
		<edge from-layer="2055" from-port="0" to-layer="2058" to-port="2" />
		<edge from-layer="2056" from-port="0" to-layer="2058" to-port="3" />
		<edge from-layer="2057" from-port="0" to-layer="2058" to-port="4" />
		<edge from-layer="2058" from-port="5" to-layer="2063" to-port="0" />
		<edge from-layer="2059" from-port="0" to-layer="2060" to-port="0" />
		<edge from-layer="2060" from-port="1" to-layer="2062" to-port="0" />
		<edge from-layer="2061" from-port="0" to-layer="2062" to-port="1" />
		<edge from-layer="2062" from-port="2" to-layer="2063" to-port="1" />
		<edge from-layer="2063" from-port="2" to-layer="2065" to-port="0" />
		<edge from-layer="2064" from-port="0" to-layer="2065" to-port="1" />
		<edge from-layer="2065" from-port="2" to-layer="2066" to-port="0" />
		<edge from-layer="2066" from-port="1" to-layer="2071" to-port="0" />
		<edge from-layer="2067" from-port="0" to-layer="2071" to-port="1" />
		<edge from-layer="2068" from-port="0" to-layer="2071" to-port="2" />
		<edge from-layer="2069" from-port="0" to-layer="2071" to-port="3" />
		<edge from-layer="2070" from-port="0" to-layer="2071" to-port="4" />
		<edge from-layer="2071" from-port="5" to-layer="2076" to-port="0" />
		<edge from-layer="2072" from-port="0" to-layer="2073" to-port="0" />
		<edge from-layer="2073" from-port="1" to-layer="2075" to-port="0" />
		<edge from-layer="2074" from-port="0" to-layer="2075" to-port="1" />
		<edge from-layer="2075" from-port="2" to-layer="2076" to-port="1" />
		<edge from-layer="2076" from-port="2" to-layer="2078" to-port="0" />
		<edge from-layer="2077" from-port="0" to-layer="2078" to-port="1" />
		<edge from-layer="2078" from-port="2" to-layer="2080" to-port="0" />
		<edge from-layer="2079" from-port="0" to-layer="2080" to-port="1" />
		<edge from-layer="2080" from-port="2" to-layer="2081" to-port="2" />
		<edge from-layer="2081" from-port="3" to-layer="2082" to-port="0" />
		<edge from-layer="2082" from-port="1" to-layer="2083" to-port="1" />
		<edge from-layer="2083" from-port="2" to-layer="2084" to-port="0" />
	</edges>
	<rt_info>
		<Runtime_version value="2025.4.1-20426-82bbf0292c5-releases/2025/4" />
		<conversion_parameters>
			<framework value="pytorch" />
			<is_python_object value="True" />
		</conversion_parameters>
		<model_info>
			<iou_threshold value="0.7" />
			<labels value="person bicycle car motorcycle airplane bus train truck boat traffic_light fire_hydrant stop_sign parking_meter bench bird cat dog horse sheep cow elephant bear zebra giraffe backpack umbrella handbag tie suitcase frisbee skis snowboard sports_ball kite baseball_bat baseball_glove skateboard surfboard tennis_racket bottle wine_glass cup fork knife spoon bowl banana apple sandwich orange broccoli carrot hot_dog pizza donut cake chair couch potted_plant bed dining_table toilet tv laptop mouse remote keyboard cell_phone microwave oven toaster sink refrigerator book clock vase scissors teddy_bear hair_drier toothbrush" />
			<model_type value="YOLO" />
			<pad_value value="114" />
			<resize_type value="fit_to_window_letterbox" />
			<reverse_input_channels value="YES" />
			<scale_values value="255" />
		</model_info>
		<nncf>
			<friendly_names_were_updated value="True" />
			<quantization>
				<advanced_parameters value="{}" />
				<fast_bias_correction value="True" />
				<ignored_scope>
					<patterns value="['.*model.21/.*/Add', '.*model.21/.*/Sub*', '.*model.21/.*/Mul*', '.*model.21/.*/Div*']" />
					<types value="['Sigmoid']" />
				</ignored_scope>
				<model_type value="None" />
				<preset value="mixed" />
				<subset_size value="300" />
				<target_device value="ANY" />
			</quantization>
			<version value="2.19.0" />
		</nncf>
	</rt_info>
</net>
